{"format": "graph-model", "generatedBy": "2.18.0", "convertedBy": "TensorFlow.js Converter v4.22.0", "signature": {"inputs": {"input_layer": {"name": "input_layer:0", "dtype": "DT_FLOAT", "tensorShape": {"dim": [{"size": "-1"}, {"size": "30"}, {"size": "42"}]}}}, "outputs": {"output_0": {"name": "Identity:0", "dtype": "DT_FLOAT", "tensorShape": {"dim": [{"size": "-1"}, {"size": "29"}]}}}}, "modelTopology": {"node": [{"name": "StatefulPartitionedCall/sequential_1/bidirectional_1_2/forward_lstm_1_1/TensorArrayV2Stack/TensorListStack/element_shape", "op": "Const", "attr": {"value": {"tensor": {"dtype": "DT_INT32", "tensorShape": {"dim": [{"size": "2"}]}}}, "dtype": {"type": "DT_INT32"}}}, {"name": "StatefulPartitionedCall/sequential_1/bidirectional_1_2/forward_lstm_1_1/strided_slice_3/stack", "op": "Const", "attr": {"value": {"tensor": {"dtype": "DT_INT32", "tensorShape": {"dim": [{"size": "1"}]}}}, "dtype": {"type": "DT_INT32"}}}, {"name": "StatefulPartitionedCall/sequential_1/bidirectional_1_2/forward_lstm_1_1/strided_slice_3/stack_1", "op": "Const", "attr": {"value": {"tensor": {"dtype": "DT_INT32", "tensorShape": {"dim": [{"size": "1"}]}}}, "dtype": {"type": "DT_INT32"}}}, {"name": "StatefulPartitionedCall/sequential_1/bidirectional_1_2/forward_lstm_1_1/strided_slice_3/stack_2", "op": "Const", "attr": {"value": {"tensor": {"dtype": "DT_INT32", "tensorShape": {"dim": [{"size": "1"}]}}}, "dtype": {"type": "DT_INT32"}}}, {"name": "StatefulPartitionedCall/sequential_1/bidirectional_1_2/backward_lstm_1_1/TensorArrayV2Stack/TensorListStack/element_shape", "op": "Const", "attr": {"value": {"tensor": {"dtype": "DT_INT32", "tensorShape": {"dim": [{"size": "2"}]}}}, "dtype": {"type": "DT_INT32"}}}, {"name": "StatefulPartitionedCall/sequential_1/bidirectional_1_2/backward_lstm_1_1/strided_slice_3/stack", "op": "Const", "attr": {"value": {"tensor": {"dtype": "DT_INT32", "tensorShape": {"dim": [{"size": "1"}]}}}, "dtype": {"type": "DT_INT32"}}}, {"name": "StatefulPartitionedCall/sequential_1/bidirectional_1_2/backward_lstm_1_1/strided_slice_3/stack_1", "op": "Const", "attr": {"value": {"tensor": {"dtype": "DT_INT32", "tensorShape": {"dim": [{"size": "1"}]}}}, "dtype": {"type": "DT_INT32"}}}, {"name": "StatefulPartitionedCall/sequential_1/bidirectional_1_2/backward_lstm_1_1/strided_slice_3/stack_2", "op": "Const", "attr": {"value": {"tensor": {"dtype": "DT_INT32", "tensorShape": {"dim": [{"size": "1"}]}}}, "dtype": {"type": "DT_INT32"}}}, {"name": "StatefulPartitionedCall/sequential_1/bidirectional_1_2/concat/axis", "op": "Const", "attr": {"value": {"tensor": {"dtype": "DT_INT32", "tensorShape": {}}}, "dtype": {"type": "DT_INT32"}}}, {"name": "StatefulPartitionedCall/sequential_1/dense_1/Cast/ReadVariableOp", "op": "Const", "attr": {"value": {"tensor": {"dtype": "DT_FLOAT", "tensorShape": {"dim": [{"size": "128"}, {"size": "64"}]}}}, "dtype": {"type": "DT_FLOAT"}}}, {"name": "StatefulPartitionedCall/sequential_1/dense_1/BiasAdd/ReadVariableOp", "op": "Const", "attr": {"value": {"tensor": {"dtype": "DT_FLOAT", "tensorShape": {"dim": [{"size": "64"}]}}}, "dtype": {"type": "DT_FLOAT"}}}, {"name": "StatefulPartitionedCall/sequential_1/batch_normalization_1/batchnorm/mul", "op": "Const", "attr": {"value": {"tensor": {"dtype": "DT_FLOAT", "tensorShape": {"dim": [{"size": "64"}]}}}, "dtype": {"type": "DT_FLOAT"}}}, {"name": "StatefulPartitionedCall/sequential_1/batch_normalization_1/batchnorm/sub", "op": "Const", "attr": {"value": {"tensor": {"dtype": "DT_FLOAT", "tensorShape": {"dim": [{"size": "64"}]}}}, "dtype": {"type": "DT_FLOAT"}}}, {"name": "StatefulPartitionedCall/sequential_1/dense_1_2/Cast/ReadVariableOp", "op": "Const", "attr": {"value": {"tensor": {"dtype": "DT_FLOAT", "tensorShape": {"dim": [{"size": "64"}, {"size": "29"}]}}}, "dtype": {"type": "DT_FLOAT"}}}, {"name": "StatefulPartitionedCall/sequential_1/dense_1_2/BiasAdd/ReadVariableOp", "op": "Const", "attr": {"value": {"tensor": {"dtype": "DT_FLOAT", "tensorShape": {"dim": [{"size": "29"}]}}}, "dtype": {"type": "DT_FLOAT"}}}, {"name": "StatefulPartitionedCall/sequential_1/bidirectional_1_2/backward_lstm_1_1/Max", "op": "Const", "attr": {"value": {"tensor": {"dtype": "DT_INT32", "tensorShape": {}}}, "dtype": {"type": "DT_INT32"}}}, {"name": "StatefulPartitionedCall/sequential_1/bidirectional_1_2/backward_lstm_1_1/while/loop_counter", "op": "Const", "attr": {"value": {"tensor": {"dtype": "DT_INT32", "tensorShape": {}}}, "_has_manual_control_dependencies": {"b": true}, "dtype": {"type": "DT_INT32"}}}, {"name": "StatefulPartitionedCall/sequential_1/bidirectional_1_2/backward_lstm_1_1/time", "op": "Const", "attr": {"value": {"tensor": {"dtype": "DT_INT32", "tensorShape": {}}}, "_has_manual_control_dependencies": {"b": true}, "dtype": {"type": "DT_INT32"}}}, {"name": "Func/StatefulPartitionedCall/input/_10", "op": "Const", "attr": {"value": {"tensor": {"dtype": "DT_FLOAT", "tensorShape": {"dim": [{"size": "256"}, {"size": "256"}]}}}, "dtype": {"type": "DT_FLOAT"}}}, {"name": "Func/StatefulPartitionedCall/input/_11", "op": "Const", "attr": {"value": {"tensor": {"dtype": "DT_FLOAT", "tensorShape": {"dim": [{"size": "64"}, {"size": "256"}]}}}, "dtype": {"type": "DT_FLOAT"}}}, {"name": "Func/StatefulPartitionedCall/input/_12", "op": "Const", "attr": {"value": {"tensor": {"dtype": "DT_FLOAT", "tensorShape": {"dim": [{"size": "256"}]}}}, "dtype": {"type": "DT_FLOAT"}}}, {"name": "StatefulPartitionedCall/sequential_1/bidirectional_1_2/backward_lstm_1_1/transpose/perm", "op": "Const", "attr": {"value": {"tensor": {"dtype": "DT_INT32", "tensorShape": {"dim": [{"size": "3"}]}}}, "dtype": {"type": "DT_INT32"}}}, {"name": "StatefulPartitionedCall/sequential_1/bidirectional_1_2/backward_lstm_1_1/ReverseV2/axis", "op": "Const", "attr": {"value": {"tensor": {"dtype": "DT_INT32", "tensorShape": {"dim": [{"size": "1"}]}}}, "dtype": {"type": "DT_INT32"}}}, {"name": "StatefulPartitionedCall/sequential_1/bidirectional_1_2/backward_lstm_1_1/TensorArrayUnstack/TensorListFromTensor/element_shape", "op": "Const", "attr": {"value": {"tensor": {"dtype": "DT_INT32", "tensorShape": {"dim": [{"size": "2"}]}}}, "dtype": {"type": "DT_INT32"}}}, {"name": "StatefulPartitionedCall/sequential_1/bidirectional_1_2/backward_lstm_1_1/TensorArrayV2_1/element_shape", "op": "Const", "attr": {"value": {"tensor": {"dtype": "DT_INT32", "tensorShape": {"dim": [{"size": "2"}]}}}, "dtype": {"type": "DT_INT32"}}}, {"name": "StatefulPartitionedCall/sequential_1/bidirectional_1_2/backward_lstm_1_1/TensorArrayV2_1/num_elements", "op": "Const", "attr": {"value": {"tensor": {"dtype": "DT_INT32", "tensorShape": {}}}, "dtype": {"type": "DT_INT32"}}}, {"name": "StatefulPartitionedCall/sequential_1/bidirectional_1_2/backward_lstm_1_1/zeros/packed/1", "op": "Const", "attr": {"value": {"tensor": {"dtype": "DT_INT32", "tensorShape": {}}}, "dtype": {"type": "DT_INT32"}}}, {"name": "StatefulPartitionedCall/sequential_1/bidirectional_1_2/backward_lstm_1_1/zeros/Const", "op": "Const", "attr": {"value": {"tensor": {"dtype": "DT_FLOAT", "tensorShape": {}}}, "dtype": {"type": "DT_FLOAT"}}}, {"name": "StatefulPartitionedCall/sequential_1/bidirectional_1_2/backward_lstm_1_1/strided_slice/stack", "op": "Const", "attr": {"value": {"tensor": {"dtype": "DT_INT32", "tensorShape": {"dim": [{"size": "1"}]}}}, "dtype": {"type": "DT_INT32"}}}, {"name": "StatefulPartitionedCall/sequential_1/bidirectional_1_2/backward_lstm_1_1/strided_slice/stack_1", "op": "Const", "attr": {"value": {"tensor": {"dtype": "DT_INT32", "tensorShape": {"dim": [{"size": "1"}]}}}, "dtype": {"type": "DT_INT32"}}}, {"name": "StatefulPartitionedCall/sequential_1/bidirectional_1_2/backward_lstm_1_1/strided_slice/stack_2", "op": "Const", "attr": {"value": {"tensor": {"dtype": "DT_INT32", "tensorShape": {"dim": [{"size": "1"}]}}}, "dtype": {"type": "DT_INT32"}}}, {"name": "StatefulPartitionedCall/sequential_1/bidirectional_1_2/backward_lstm_1_1/zeros_1/packed/1", "op": "Const", "attr": {"value": {"tensor": {"dtype": "DT_INT32", "tensorShape": {}}}, "dtype": {"type": "DT_INT32"}}}, {"name": "StatefulPartitionedCall/sequential_1/bidirectional_1_2/backward_lstm_1_1/zeros_1/Const", "op": "Const", "attr": {"value": {"tensor": {"dtype": "DT_FLOAT", "tensorShape": {}}}, "dtype": {"type": "DT_FLOAT"}}}, {"name": "StatefulPartitionedCall/sequential_1/bidirectional_1_2/forward_lstm_1_1/Max", "op": "Const", "attr": {"value": {"tensor": {"dtype": "DT_INT32", "tensorShape": {}}}, "dtype": {"type": "DT_INT32"}}}, {"name": "StatefulPartitionedCall/sequential_1/bidirectional_1_2/forward_lstm_1_1/while/loop_counter", "op": "Const", "attr": {"value": {"tensor": {"dtype": "DT_INT32", "tensorShape": {}}}, "_has_manual_control_dependencies": {"b": true}, "dtype": {"type": "DT_INT32"}}}, {"name": "StatefulPartitionedCall/sequential_1/bidirectional_1_2/forward_lstm_1_1/time", "op": "Const", "attr": {"value": {"tensor": {"dtype": "DT_INT32", "tensorShape": {}}}, "_has_manual_control_dependencies": {"b": true}, "dtype": {"type": "DT_INT32"}}}, {"name": "Func/StatefulPartitionedCall/input/_7", "op": "Const", "attr": {"value": {"tensor": {"dtype": "DT_FLOAT", "tensorShape": {"dim": [{"size": "256"}, {"size": "256"}]}}}, "dtype": {"type": "DT_FLOAT"}}}, {"name": "Func/StatefulPartitionedCall/input/_8", "op": "Const", "attr": {"value": {"tensor": {"dtype": "DT_FLOAT", "tensorShape": {"dim": [{"size": "64"}, {"size": "256"}]}}}, "dtype": {"type": "DT_FLOAT"}}}, {"name": "Func/StatefulPartitionedCall/input/_9", "op": "Const", "attr": {"value": {"tensor": {"dtype": "DT_FLOAT", "tensorShape": {"dim": [{"size": "256"}]}}}, "dtype": {"type": "DT_FLOAT"}}}, {"name": "StatefulPartitionedCall/sequential_1/bidirectional_1_2/forward_lstm_1_1/transpose/perm", "op": "Const", "attr": {"value": {"tensor": {"dtype": "DT_INT32", "tensorShape": {"dim": [{"size": "3"}]}}}, "dtype": {"type": "DT_INT32"}}}, {"name": "StatefulPartitionedCall/sequential_1/bidirectional_1_2/forward_lstm_1_1/TensorArrayUnstack/TensorListFromTensor/element_shape", "op": "Const", "attr": {"value": {"tensor": {"dtype": "DT_INT32", "tensorShape": {"dim": [{"size": "2"}]}}}, "dtype": {"type": "DT_INT32"}}}, {"name": "StatefulPartitionedCall/sequential_1/bidirectional_1_2/forward_lstm_1_1/TensorArrayV2_1/element_shape", "op": "Const", "attr": {"value": {"tensor": {"dtype": "DT_INT32", "tensorShape": {"dim": [{"size": "2"}]}}}, "dtype": {"type": "DT_INT32"}}}, {"name": "StatefulPartitionedCall/sequential_1/bidirectional_1_2/forward_lstm_1_1/TensorArrayV2_1/num_elements", "op": "Const", "attr": {"value": {"tensor": {"dtype": "DT_INT32", "tensorShape": {}}}, "dtype": {"type": "DT_INT32"}}}, {"name": "StatefulPartitionedCall/sequential_1/bidirectional_1_2/forward_lstm_1_1/zeros/packed/1", "op": "Const", "attr": {"value": {"tensor": {"dtype": "DT_INT32", "tensorShape": {}}}, "dtype": {"type": "DT_INT32"}}}, {"name": "StatefulPartitionedCall/sequential_1/bidirectional_1_2/forward_lstm_1_1/zeros/Const", "op": "Const", "attr": {"value": {"tensor": {"dtype": "DT_FLOAT", "tensorShape": {}}}, "dtype": {"type": "DT_FLOAT"}}}, {"name": "StatefulPartitionedCall/sequential_1/bidirectional_1/forward_lstm_1/Max", "op": "Const", "attr": {"value": {"tensor": {"dtype": "DT_INT32", "tensorShape": {}}}, "dtype": {"type": "DT_INT32"}}}, {"name": "StatefulPartitionedCall/sequential_1/bidirectional_1/forward_lstm_1/while/loop_counter", "op": "Const", "attr": {"value": {"tensor": {"dtype": "DT_INT32", "tensorShape": {}}}, "_has_manual_control_dependencies": {"b": true}, "dtype": {"type": "DT_INT32"}}}, {"name": "StatefulPartitionedCall/sequential_1/bidirectional_1/forward_lstm_1/time", "op": "Const", "attr": {"value": {"tensor": {"dtype": "DT_INT32", "tensorShape": {}}}, "_has_manual_control_dependencies": {"b": true}, "dtype": {"type": "DT_INT32"}}}, {"name": "Func/StatefulPartitionedCall/input/_1", "op": "Const", "attr": {"value": {"tensor": {"dtype": "DT_FLOAT", "tensorShape": {"dim": [{"size": "42"}, {"size": "512"}]}}}, "dtype": {"type": "DT_FLOAT"}}}, {"name": "Func/StatefulPartitionedCall/input/_2", "op": "Const", "attr": {"value": {"tensor": {"dtype": "DT_FLOAT", "tensorShape": {"dim": [{"size": "128"}, {"size": "512"}]}}}, "dtype": {"type": "DT_FLOAT"}}}, {"name": "Func/StatefulPartitionedCall/input/_3", "op": "Const", "attr": {"value": {"tensor": {"dtype": "DT_FLOAT", "tensorShape": {"dim": [{"size": "512"}]}}}, "dtype": {"type": "DT_FLOAT"}}}, {"name": "StatefulPartitionedCall/sequential_1/bidirectional_1/forward_lstm_1/transpose/perm", "op": "Const", "attr": {"value": {"tensor": {"dtype": "DT_INT32", "tensorShape": {"dim": [{"size": "3"}]}}}, "dtype": {"type": "DT_INT32"}}}, {"name": "StatefulPartitionedCall/sequential_1/bidirectional_1/forward_lstm_1/TensorArrayUnstack/TensorListFromTensor/element_shape", "op": "Const", "attr": {"value": {"tensor": {"dtype": "DT_INT32", "tensorShape": {"dim": [{"size": "2"}]}}}, "dtype": {"type": "DT_INT32"}}}, {"name": "StatefulPartitionedCall/sequential_1/bidirectional_1/forward_lstm_1/TensorArrayV2_1/element_shape", "op": "Const", "attr": {"value": {"tensor": {"dtype": "DT_INT32", "tensorShape": {"dim": [{"size": "2"}]}}}, "dtype": {"type": "DT_INT32"}}}, {"name": "StatefulPartitionedCall/sequential_1/bidirectional_1/forward_lstm_1/TensorArrayV2_1/num_elements", "op": "Const", "attr": {"value": {"tensor": {"dtype": "DT_INT32", "tensorShape": {}}}, "dtype": {"type": "DT_INT32"}}}, {"name": "StatefulPartitionedCall/sequential_1/bidirectional_1/forward_lstm_1/zeros/packed/1", "op": "Const", "attr": {"value": {"tensor": {"dtype": "DT_INT32", "tensorShape": {}}}, "dtype": {"type": "DT_INT32"}}}, {"name": "StatefulPartitionedCall/sequential_1/bidirectional_1/forward_lstm_1/zeros/Const", "op": "Const", "attr": {"value": {"tensor": {"dtype": "DT_FLOAT", "tensorShape": {}}}, "dtype": {"type": "DT_FLOAT"}}}, {"name": "StatefulPartitionedCall/sequential_1/bidirectional_1/forward_lstm_1/strided_slice/stack", "op": "Const", "attr": {"value": {"tensor": {"dtype": "DT_INT32", "tensorShape": {"dim": [{"size": "1"}]}}}, "dtype": {"type": "DT_INT32"}}}, {"name": "StatefulPartitionedCall/sequential_1/bidirectional_1/forward_lstm_1/strided_slice/stack_1", "op": "Const", "attr": {"value": {"tensor": {"dtype": "DT_INT32", "tensorShape": {"dim": [{"size": "1"}]}}}, "dtype": {"type": "DT_INT32"}}}, {"name": "StatefulPartitionedCall/sequential_1/bidirectional_1/forward_lstm_1/strided_slice/stack_2", "op": "Const", "attr": {"value": {"tensor": {"dtype": "DT_INT32", "tensorShape": {"dim": [{"size": "1"}]}}}, "dtype": {"type": "DT_INT32"}}}, {"name": "StatefulPartitionedCall/sequential_1/bidirectional_1/forward_lstm_1/zeros_1/packed/1", "op": "Const", "attr": {"value": {"tensor": {"dtype": "DT_INT32", "tensorShape": {}}}, "dtype": {"type": "DT_INT32"}}}, {"name": "StatefulPartitionedCall/sequential_1/bidirectional_1/forward_lstm_1/zeros_1/Const", "op": "Const", "attr": {"value": {"tensor": {"dtype": "DT_FLOAT", "tensorShape": {}}}, "dtype": {"type": "DT_FLOAT"}}}, {"name": "StatefulPartitionedCall/sequential_1/bidirectional_1/forward_lstm_1/TensorArrayV2Stack/TensorListStack/element_shape", "op": "Const", "attr": {"value": {"tensor": {"dtype": "DT_INT32", "tensorShape": {"dim": [{"size": "2"}]}}}, "dtype": {"type": "DT_INT32"}}}, {"name": "StatefulPartitionedCall/sequential_1/bidirectional_1/forward_lstm_1/transpose_1/perm", "op": "Const", "attr": {"value": {"tensor": {"dtype": "DT_INT32", "tensorShape": {"dim": [{"size": "3"}]}}}, "dtype": {"type": "DT_INT32"}}}, {"name": "StatefulPartitionedCall/sequential_1/bidirectional_1/backward_lstm_1/Max", "op": "Const", "attr": {"value": {"tensor": {"dtype": "DT_INT32", "tensorShape": {}}}, "dtype": {"type": "DT_INT32"}}}, {"name": "StatefulPartitionedCall/sequential_1/bidirectional_1/backward_lstm_1/while/loop_counter", "op": "Const", "attr": {"value": {"tensor": {"dtype": "DT_INT32", "tensorShape": {}}}, "_has_manual_control_dependencies": {"b": true}, "dtype": {"type": "DT_INT32"}}}, {"name": "StatefulPartitionedCall/sequential_1/bidirectional_1/backward_lstm_1/time", "op": "Const", "attr": {"value": {"tensor": {"dtype": "DT_INT32", "tensorShape": {}}}, "_has_manual_control_dependencies": {"b": true}, "dtype": {"type": "DT_INT32"}}}, {"name": "Func/StatefulPartitionedCall/input/_4", "op": "Const", "attr": {"value": {"tensor": {"dtype": "DT_FLOAT", "tensorShape": {"dim": [{"size": "42"}, {"size": "512"}]}}}, "dtype": {"type": "DT_FLOAT"}}}, {"name": "Func/StatefulPartitionedCall/input/_5", "op": "Const", "attr": {"value": {"tensor": {"dtype": "DT_FLOAT", "tensorShape": {"dim": [{"size": "128"}, {"size": "512"}]}}}, "dtype": {"type": "DT_FLOAT"}}}, {"name": "Func/StatefulPartitionedCall/input/_6", "op": "Const", "attr": {"value": {"tensor": {"dtype": "DT_FLOAT", "tensorShape": {"dim": [{"size": "512"}]}}}, "dtype": {"type": "DT_FLOAT"}}}, {"name": "StatefulPartitionedCall/sequential_1/bidirectional_1/backward_lstm_1/transpose/perm", "op": "Const", "attr": {"value": {"tensor": {"dtype": "DT_INT32", "tensorShape": {"dim": [{"size": "3"}]}}}, "dtype": {"type": "DT_INT32"}}}, {"name": "StatefulPartitionedCall/sequential_1/bidirectional_1/backward_lstm_1/ReverseV2/axis", "op": "Const", "attr": {"value": {"tensor": {"dtype": "DT_INT32", "tensorShape": {"dim": [{"size": "1"}]}}}, "dtype": {"type": "DT_INT32"}}}, {"name": "StatefulPartitionedCall/sequential_1/bidirectional_1/backward_lstm_1/TensorArrayUnstack/TensorListFromTensor/element_shape", "op": "Const", "attr": {"value": {"tensor": {"dtype": "DT_INT32", "tensorShape": {"dim": [{"size": "2"}]}}}, "dtype": {"type": "DT_INT32"}}}, {"name": "StatefulPartitionedCall/sequential_1/bidirectional_1/backward_lstm_1/TensorArrayV2_1/element_shape", "op": "Const", "attr": {"value": {"tensor": {"dtype": "DT_INT32", "tensorShape": {"dim": [{"size": "2"}]}}}, "dtype": {"type": "DT_INT32"}}}, {"name": "StatefulPartitionedCall/sequential_1/bidirectional_1/backward_lstm_1/TensorArrayV2_1/num_elements", "op": "Const", "attr": {"value": {"tensor": {"dtype": "DT_INT32", "tensorShape": {}}}, "dtype": {"type": "DT_INT32"}}}, {"name": "StatefulPartitionedCall/sequential_1/bidirectional_1/backward_lstm_1/zeros/packed/1", "op": "Const", "attr": {"value": {"tensor": {"dtype": "DT_INT32", "tensorShape": {}}}, "dtype": {"type": "DT_INT32"}}}, {"name": "StatefulPartitionedCall/sequential_1/bidirectional_1/backward_lstm_1/zeros/Const", "op": "Const", "attr": {"value": {"tensor": {"dtype": "DT_FLOAT", "tensorShape": {}}}, "dtype": {"type": "DT_FLOAT"}}}, {"name": "StatefulPartitionedCall/sequential_1/bidirectional_1/backward_lstm_1/strided_slice/stack", "op": "Const", "attr": {"value": {"tensor": {"dtype": "DT_INT32", "tensorShape": {"dim": [{"size": "1"}]}}}, "dtype": {"type": "DT_INT32"}}}, {"name": "StatefulPartitionedCall/sequential_1/bidirectional_1/backward_lstm_1/strided_slice/stack_1", "op": "Const", "attr": {"value": {"tensor": {"dtype": "DT_INT32", "tensorShape": {"dim": [{"size": "1"}]}}}, "dtype": {"type": "DT_INT32"}}}, {"name": "StatefulPartitionedCall/sequential_1/bidirectional_1/backward_lstm_1/strided_slice/stack_2", "op": "Const", "attr": {"value": {"tensor": {"dtype": "DT_INT32", "tensorShape": {"dim": [{"size": "1"}]}}}, "dtype": {"type": "DT_INT32"}}}, {"name": "StatefulPartitionedCall/sequential_1/bidirectional_1/backward_lstm_1/zeros_1/packed/1", "op": "Const", "attr": {"value": {"tensor": {"dtype": "DT_INT32", "tensorShape": {}}}, "dtype": {"type": "DT_INT32"}}}, {"name": "StatefulPartitionedCall/sequential_1/bidirectional_1/backward_lstm_1/zeros_1/Const", "op": "Const", "attr": {"value": {"tensor": {"dtype": "DT_FLOAT", "tensorShape": {}}}, "dtype": {"type": "DT_FLOAT"}}}, {"name": "StatefulPartitionedCall/sequential_1/bidirectional_1/backward_lstm_1/TensorArrayV2Stack/TensorListStack/element_shape", "op": "Const", "attr": {"value": {"tensor": {"dtype": "DT_INT32", "tensorShape": {"dim": [{"size": "2"}]}}}, "dtype": {"type": "DT_INT32"}}}, {"name": "StatefulPartitionedCall/sequential_1/bidirectional_1/backward_lstm_1/transpose_1/perm", "op": "Const", "attr": {"value": {"tensor": {"dtype": "DT_INT32", "tensorShape": {"dim": [{"size": "3"}]}}}, "dtype": {"type": "DT_INT32"}}}, {"name": "StatefulPartitionedCall/sequential_1/bidirectional_1/ReverseV2/axis", "op": "Const", "attr": {"value": {"tensor": {"dtype": "DT_INT32", "tensorShape": {"dim": [{"size": "1"}]}}}, "dtype": {"type": "DT_INT32"}}}, {"name": "StatefulPartitionedCall/sequential_1/bidirectional_1/concat/axis", "op": "Const", "attr": {"value": {"tensor": {"dtype": "DT_INT32", "tensorShape": {}}}, "dtype": {"type": "DT_INT32"}}}, {"name": "StatefulPartitionedCall/sequential_1/bidirectional_1_2/forward_lstm_1_1/strided_slice/stack", "op": "Const", "attr": {"value": {"tensor": {"dtype": "DT_INT32", "tensorShape": {"dim": [{"size": "1"}]}}}, "dtype": {"type": "DT_INT32"}}}, {"name": "StatefulPartitionedCall/sequential_1/bidirectional_1_2/forward_lstm_1_1/strided_slice/stack_1", "op": "Const", "attr": {"value": {"tensor": {"dtype": "DT_INT32", "tensorShape": {"dim": [{"size": "1"}]}}}, "dtype": {"type": "DT_INT32"}}}, {"name": "StatefulPartitionedCall/sequential_1/bidirectional_1_2/forward_lstm_1_1/strided_slice/stack_2", "op": "Const", "attr": {"value": {"tensor": {"dtype": "DT_INT32", "tensorShape": {"dim": [{"size": "1"}]}}}, "dtype": {"type": "DT_INT32"}}}, {"name": "StatefulPartitionedCall/sequential_1/bidirectional_1_2/forward_lstm_1_1/zeros_1/packed/1", "op": "Const", "attr": {"value": {"tensor": {"dtype": "DT_INT32", "tensorShape": {}}}, "dtype": {"type": "DT_INT32"}}}, {"name": "StatefulPartitionedCall/sequential_1/bidirectional_1_2/forward_lstm_1_1/zeros_1/Const", "op": "Const", "attr": {"value": {"tensor": {"dtype": "DT_FLOAT", "tensorShape": {}}}, "dtype": {"type": "DT_FLOAT"}}}, {"name": "input_layer", "op": "Placeholder", "attr": {"shape": {"shape": {"dim": [{"size": "-1"}, {"size": "30"}, {"size": "42"}]}}, "dtype": {"type": "DT_FLOAT"}}}, {"name": "StatefulPartitionedCall/sequential_1/bidirectional_1_2/backward_lstm_1_1/TensorArrayV2_1", "op": "TensorListReserve", "input": ["StatefulPartitionedCall/sequential_1/bidirectional_1_2/backward_lstm_1_1/TensorArrayV2_1/element_shape", "StatefulPartitionedCall/sequential_1/bidirectional_1_2/backward_lstm_1_1/TensorArrayV2_1/num_elements"], "attr": {"shape_type": {"type": "DT_INT32"}, "_has_manual_control_dependencies": {"b": true}, "element_dtype": {"type": "DT_FLOAT"}}, "experimentalType": {"typeId": "TFT_PRODUCT", "args": [{"typeId": "TFT_ARRAY", "args": [{"typeId": "TFT_TENSOR", "args": [{"typeId": "TFT_FLOAT"}]}]}]}}, {"name": "StatefulPartitionedCall/sequential_1/bidirectional_1_2/forward_lstm_1_1/TensorArrayV2_1", "op": "TensorListReserve", "input": ["StatefulPartitionedCall/sequential_1/bidirectional_1_2/forward_lstm_1_1/TensorArrayV2_1/element_shape", "StatefulPartitionedCall/sequential_1/bidirectional_1_2/forward_lstm_1_1/TensorArrayV2_1/num_elements"], "attr": {"shape_type": {"type": "DT_INT32"}, "_has_manual_control_dependencies": {"b": true}, "element_dtype": {"type": "DT_FLOAT"}}, "experimentalType": {"typeId": "TFT_PRODUCT", "args": [{"typeId": "TFT_ARRAY", "args": [{"typeId": "TFT_TENSOR", "args": [{"typeId": "TFT_FLOAT"}]}]}]}}, {"name": "StatefulPartitionedCall/sequential_1/bidirectional_1/forward_lstm_1/TensorArrayV2_1", "op": "TensorListReserve", "input": ["StatefulPartitionedCall/sequential_1/bidirectional_1/forward_lstm_1/TensorArrayV2_1/element_shape", "StatefulPartitionedCall/sequential_1/bidirectional_1/forward_lstm_1/TensorArrayV2_1/num_elements"], "attr": {"shape_type": {"type": "DT_INT32"}, "_has_manual_control_dependencies": {"b": true}, "element_dtype": {"type": "DT_FLOAT"}}, "experimentalType": {"typeId": "TFT_PRODUCT", "args": [{"typeId": "TFT_ARRAY", "args": [{"typeId": "TFT_TENSOR", "args": [{"typeId": "TFT_FLOAT"}]}]}]}}, {"name": "StatefulPartitionedCall/sequential_1/bidirectional_1/backward_lstm_1/TensorArrayV2_1", "op": "TensorListReserve", "input": ["StatefulPartitionedCall/sequential_1/bidirectional_1/backward_lstm_1/TensorArrayV2_1/element_shape", "StatefulPartitionedCall/sequential_1/bidirectional_1/backward_lstm_1/TensorArrayV2_1/num_elements"], "attr": {"shape_type": {"type": "DT_INT32"}, "_has_manual_control_dependencies": {"b": true}, "element_dtype": {"type": "DT_FLOAT"}}, "experimentalType": {"typeId": "TFT_PRODUCT", "args": [{"typeId": "TFT_ARRAY", "args": [{"typeId": "TFT_TENSOR", "args": [{"typeId": "TFT_FLOAT"}]}]}]}}, {"name": "StatefulPartitionedCall/sequential_1/bidirectional_1/forward_lstm_1/transpose", "op": "Transpose", "input": ["input_layer", "StatefulPartitionedCall/sequential_1/bidirectional_1/forward_lstm_1/transpose/perm"], "attr": {"Tperm": {"type": "DT_INT32"}, "T": {"type": "DT_FLOAT"}}}, {"name": "StatefulPartitionedCall/sequential_1/bidirectional_1/forward_lstm_1/Shape", "op": "Shape", "input": ["input_layer"], "attr": {"T": {"type": "DT_FLOAT"}, "out_type": {"type": "DT_INT32"}}, "experimentalType": {"typeId": "TFT_PRODUCT", "args": [{"typeId": "TFT_SHAPE_TENSOR", "args": [{"typeId": "TFT_INT32"}]}]}}, {"name": "StatefulPartitionedCall/sequential_1/bidirectional_1/backward_lstm_1/transpose", "op": "Transpose", "input": ["input_layer", "StatefulPartitionedCall/sequential_1/bidirectional_1/backward_lstm_1/transpose/perm"], "attr": {"Tperm": {"type": "DT_INT32"}, "T": {"type": "DT_FLOAT"}}}, {"name": "StatefulPartitionedCall/sequential_1/bidirectional_1/backward_lstm_1/Shape", "op": "Shape", "input": ["input_layer"], "attr": {"T": {"type": "DT_FLOAT"}, "out_type": {"type": "DT_INT32"}}, "experimentalType": {"typeId": "TFT_PRODUCT", "args": [{"typeId": "TFT_SHAPE_TENSOR", "args": [{"typeId": "TFT_INT32"}]}]}}, {"name": "StatefulPartitionedCall/sequential_1/bidirectional_1/forward_lstm_1/TensorArrayUnstack/TensorListFromTensor", "op": "TensorListFromTensor", "input": ["StatefulPartitionedCall/sequential_1/bidirectional_1/forward_lstm_1/transpose", "StatefulPartitionedCall/sequential_1/bidirectional_1/forward_lstm_1/TensorArrayUnstack/TensorListFromTensor/element_shape"], "attr": {"shape_type": {"type": "DT_INT32"}, "_has_manual_control_dependencies": {"b": true}, "element_dtype": {"type": "DT_FLOAT"}}, "experimentalType": {"typeId": "TFT_PRODUCT", "args": [{"typeId": "TFT_ARRAY", "args": [{"typeId": "TFT_TENSOR", "args": [{"typeId": "TFT_FLOAT"}]}]}]}}, {"name": "StatefulPartitionedCall/sequential_1/bidirectional_1/forward_lstm_1/strided_slice", "op": "StridedSlice", "input": ["StatefulPartitionedCall/sequential_1/bidirectional_1/forward_lstm_1/Shape", "StatefulPartitionedCall/sequential_1/bidirectional_1/forward_lstm_1/strided_slice/stack", "StatefulPartitionedCall/sequential_1/bidirectional_1/forward_lstm_1/strided_slice/stack_1", "StatefulPartitionedCall/sequential_1/bidirectional_1/forward_lstm_1/strided_slice/stack_2"], "attr": {"shrink_axis_mask": {"i": "1"}, "new_axis_mask": {"i": "0"}, "Index": {"type": "DT_INT32"}, "begin_mask": {"i": "0"}, "end_mask": {"i": "0"}, "T": {"type": "DT_INT32"}, "ellipsis_mask": {"i": "0"}}}, {"name": "StatefulPartitionedCall/sequential_1/bidirectional_1/backward_lstm_1/ReverseV2", "op": "ReverseV2", "input": ["StatefulPartitionedCall/sequential_1/bidirectional_1/backward_lstm_1/transpose", "StatefulPartitionedCall/sequential_1/bidirectional_1/backward_lstm_1/ReverseV2/axis"], "attr": {"T": {"type": "DT_FLOAT"}, "Tidx": {"type": "DT_INT32"}}}, {"name": "StatefulPartitionedCall/sequential_1/bidirectional_1/backward_lstm_1/strided_slice", "op": "StridedSlice", "input": ["StatefulPartitionedCall/sequential_1/bidirectional_1/backward_lstm_1/Shape", "StatefulPartitionedCall/sequential_1/bidirectional_1/backward_lstm_1/strided_slice/stack", "StatefulPartitionedCall/sequential_1/bidirectional_1/backward_lstm_1/strided_slice/stack_1", "StatefulPartitionedCall/sequential_1/bidirectional_1/backward_lstm_1/strided_slice/stack_2"], "attr": {"shrink_axis_mask": {"i": "1"}, "new_axis_mask": {"i": "0"}, "Index": {"type": "DT_INT32"}, "begin_mask": {"i": "0"}, "T": {"type": "DT_INT32"}, "end_mask": {"i": "0"}, "ellipsis_mask": {"i": "0"}}}, {"name": "StatefulPartitionedCall/sequential_1/bidirectional_1/forward_lstm_1/zeros/packed", "op": "Pack", "input": ["StatefulPartitionedCall/sequential_1/bidirectional_1/forward_lstm_1/strided_slice", "StatefulPartitionedCall/sequential_1/bidirectional_1/forward_lstm_1/zeros/packed/1"], "attr": {"N": {"i": "2"}, "axis": {"i": "0"}, "T": {"type": "DT_INT32"}}}, {"name": "StatefulPartitionedCall/sequential_1/bidirectional_1/forward_lstm_1/zeros_1/packed", "op": "Pack", "input": ["StatefulPartitionedCall/sequential_1/bidirectional_1/forward_lstm_1/strided_slice", "StatefulPartitionedCall/sequential_1/bidirectional_1/forward_lstm_1/zeros_1/packed/1"], "attr": {"N": {"i": "2"}, "axis": {"i": "0"}, "T": {"type": "DT_INT32"}}}, {"name": "StatefulPartitionedCall/sequential_1/bidirectional_1/backward_lstm_1/TensorArrayUnstack/TensorListFromTensor", "op": "TensorListFromTensor", "input": ["StatefulPartitionedCall/sequential_1/bidirectional_1/backward_lstm_1/ReverseV2", "StatefulPartitionedCall/sequential_1/bidirectional_1/backward_lstm_1/TensorArrayUnstack/TensorListFromTensor/element_shape"], "attr": {"shape_type": {"type": "DT_INT32"}, "_has_manual_control_dependencies": {"b": true}, "element_dtype": {"type": "DT_FLOAT"}}, "experimentalType": {"typeId": "TFT_PRODUCT", "args": [{"typeId": "TFT_ARRAY", "args": [{"typeId": "TFT_TENSOR", "args": [{"typeId": "TFT_FLOAT"}]}]}]}}, {"name": "StatefulPartitionedCall/sequential_1/bidirectional_1/backward_lstm_1/zeros/packed", "op": "Pack", "input": ["StatefulPartitionedCall/sequential_1/bidirectional_1/backward_lstm_1/strided_slice", "StatefulPartitionedCall/sequential_1/bidirectional_1/backward_lstm_1/zeros/packed/1"], "attr": {"N": {"i": "2"}, "axis": {"i": "0"}, "T": {"type": "DT_INT32"}}}, {"name": "StatefulPartitionedCall/sequential_1/bidirectional_1/backward_lstm_1/zeros_1/packed", "op": "Pack", "input": ["StatefulPartitionedCall/sequential_1/bidirectional_1/backward_lstm_1/strided_slice", "StatefulPartitionedCall/sequential_1/bidirectional_1/backward_lstm_1/zeros_1/packed/1"], "attr": {"N": {"i": "2"}, "axis": {"i": "0"}, "T": {"type": "DT_INT32"}}}, {"name": "StatefulPartitionedCall/sequential_1/bidirectional_1/forward_lstm_1/zeros", "op": "Fill", "input": ["StatefulPartitionedCall/sequential_1/bidirectional_1/forward_lstm_1/zeros/packed", "StatefulPartitionedCall/sequential_1/bidirectional_1/forward_lstm_1/zeros/Const"], "attr": {"_has_manual_control_dependencies": {"b": true}, "T": {"type": "DT_FLOAT"}, "index_type": {"type": "DT_INT32"}}}, {"name": "StatefulPartitionedCall/sequential_1/bidirectional_1/forward_lstm_1/zeros_1", "op": "Fill", "input": ["StatefulPartitionedCall/sequential_1/bidirectional_1/forward_lstm_1/zeros_1/packed", "StatefulPartitionedCall/sequential_1/bidirectional_1/forward_lstm_1/zeros_1/Const"], "attr": {"_has_manual_control_dependencies": {"b": true}, "T": {"type": "DT_FLOAT"}, "index_type": {"type": "DT_INT32"}}}, {"name": "StatefulPartitionedCall/sequential_1/bidirectional_1/backward_lstm_1/zeros", "op": "Fill", "input": ["StatefulPartitionedCall/sequential_1/bidirectional_1/backward_lstm_1/zeros/packed", "StatefulPartitionedCall/sequential_1/bidirectional_1/backward_lstm_1/zeros/Const"], "attr": {"_has_manual_control_dependencies": {"b": true}, "T": {"type": "DT_FLOAT"}, "index_type": {"type": "DT_INT32"}}}, {"name": "StatefulPartitionedCall/sequential_1/bidirectional_1/backward_lstm_1/zeros_1", "op": "Fill", "input": ["StatefulPartitionedCall/sequential_1/bidirectional_1/backward_lstm_1/zeros_1/packed", "StatefulPartitionedCall/sequential_1/bidirectional_1/backward_lstm_1/zeros_1/Const"], "attr": {"_has_manual_control_dependencies": {"b": true}, "T": {"type": "DT_FLOAT"}, "index_type": {"type": "DT_INT32"}}}, {"name": "StatefulPartitionedCall/sequential_1/bidirectional_1/forward_lstm_1/while/LoopControlInputs/_35", "op": "NoOp", "input": ["^StatefulPartitionedCall/sequential_1/bidirectional_1/forward_lstm_1/TensorArrayUnstack/TensorListFromTensor", "^StatefulPartitionedCall/sequential_1/bidirectional_1/forward_lstm_1/TensorArrayV2_1", "^StatefulPartitionedCall/sequential_1/bidirectional_1/forward_lstm_1/zeros", "^StatefulPartitionedCall/sequential_1/bidirectional_1/forward_lstm_1/zeros_1"], "attr": {"_has_manual_control_dependencies": {"b": true}}}, {"name": "StatefulPartitionedCall/sequential_1/bidirectional_1/backward_lstm_1/while/LoopControlInputs/_79", "op": "NoOp", "input": ["^StatefulPartitionedCall/sequential_1/bidirectional_1/backward_lstm_1/TensorArrayUnstack/TensorListFromTensor", "^StatefulPartitionedCall/sequential_1/bidirectional_1/backward_lstm_1/TensorArrayV2_1", "^StatefulPartitionedCall/sequential_1/bidirectional_1/backward_lstm_1/zeros", "^StatefulPartitionedCall/sequential_1/bidirectional_1/backward_lstm_1/zeros_1"], "attr": {"_has_manual_control_dependencies": {"b": true}}}, {"name": "StatefulPartitionedCall/sequential_1/bidirectional_1/forward_lstm_1/while/enter/_28", "op": "Enter", "input": ["StatefulPartitionedCall/sequential_1/bidirectional_1/forward_lstm_1/TensorArrayV2_1", "^StatefulPartitionedCall/sequential_1/bidirectional_1/forward_lstm_1/while/LoopControlInputs/_35"], "attr": {"is_constant": {"b": false}, "frame_name": {"s": "U3RhdGVmdWxQYXJ0aXRpb25lZENhbGwvc2VxdWVudGlhbF8xL2JpZGlyZWN0aW9uYWxfMS9mb3J3YXJkX2xzdG1fMS93aGlsZQ=="}, "T": {"type": "DT_VARIANT"}, "parallel_iterations": {"i": "32"}}}, {"name": "StatefulPartitionedCall/sequential_1/bidirectional_1/forward_lstm_1/while/enter/_31", "op": "Enter", "input": ["StatefulPartitionedCall/sequential_1/bidirectional_1/forward_lstm_1/TensorArrayUnstack/TensorListFromTensor", "^StatefulPartitionedCall/sequential_1/bidirectional_1/forward_lstm_1/while/LoopControlInputs/_35"], "attr": {"is_constant": {"b": false}, "frame_name": {"s": "U3RhdGVmdWxQYXJ0aXRpb25lZENhbGwvc2VxdWVudGlhbF8xL2JpZGlyZWN0aW9uYWxfMS9mb3J3YXJkX2xzdG1fMS93aGlsZQ=="}, "T": {"type": "DT_VARIANT"}, "parallel_iterations": {"i": "32"}}}, {"name": "StatefulPartitionedCall/sequential_1/bidirectional_1/forward_lstm_1/while/enter/_26", "op": "Enter", "input": ["StatefulPartitionedCall/sequential_1/bidirectional_1/forward_lstm_1/Max", "^StatefulPartitionedCall/sequential_1/bidirectional_1/forward_lstm_1/while/LoopControlInputs/_35"], "attr": {"is_constant": {"b": false}, "frame_name": {"s": "U3RhdGVmdWxQYXJ0aXRpb25lZENhbGwvc2VxdWVudGlhbF8xL2JpZGlyZWN0aW9uYWxfMS9mb3J3YXJkX2xzdG1fMS93aGlsZQ=="}, "T": {"type": "DT_INT32"}, "parallel_iterations": {"i": "32"}}}, {"name": "StatefulPartitionedCall/sequential_1/bidirectional_1/forward_lstm_1/while/enter/_25", "op": "Enter", "input": ["StatefulPartitionedCall/sequential_1/bidirectional_1/forward_lstm_1/while/loop_counter", "^StatefulPartitionedCall/sequential_1/bidirectional_1/forward_lstm_1/while/LoopControlInputs/_35"], "attr": {"is_constant": {"b": false}, "frame_name": {"s": "U3RhdGVmdWxQYXJ0aXRpb25lZENhbGwvc2VxdWVudGlhbF8xL2JpZGlyZWN0aW9uYWxfMS9mb3J3YXJkX2xzdG1fMS93aGlsZQ=="}, "T": {"type": "DT_INT32"}, "parallel_iterations": {"i": "32"}}}, {"name": "StatefulPartitionedCall/sequential_1/bidirectional_1/forward_lstm_1/while/enter/_29", "op": "Enter", "input": ["StatefulPartitionedCall/sequential_1/bidirectional_1/forward_lstm_1/zeros", "^StatefulPartitionedCall/sequential_1/bidirectional_1/forward_lstm_1/while/LoopControlInputs/_35"], "attr": {"is_constant": {"b": false}, "frame_name": {"s": "U3RhdGVmdWxQYXJ0aXRpb25lZENhbGwvc2VxdWVudGlhbF8xL2JpZGlyZWN0aW9uYWxfMS9mb3J3YXJkX2xzdG1fMS93aGlsZQ=="}, "T": {"type": "DT_FLOAT"}, "parallel_iterations": {"i": "32"}}}, {"name": "StatefulPartitionedCall/sequential_1/bidirectional_1/forward_lstm_1/while/enter/_30", "op": "Enter", "input": ["StatefulPartitionedCall/sequential_1/bidirectional_1/forward_lstm_1/zeros_1", "^StatefulPartitionedCall/sequential_1/bidirectional_1/forward_lstm_1/while/LoopControlInputs/_35"], "attr": {"is_constant": {"b": false}, "frame_name": {"s": "U3RhdGVmdWxQYXJ0aXRpb25lZENhbGwvc2VxdWVudGlhbF8xL2JpZGlyZWN0aW9uYWxfMS9mb3J3YXJkX2xzdG1fMS93aGlsZQ=="}, "T": {"type": "DT_FLOAT"}, "parallel_iterations": {"i": "32"}}}, {"name": "StatefulPartitionedCall/sequential_1/bidirectional_1/forward_lstm_1/while/enter/_27", "op": "Enter", "input": ["StatefulPartitionedCall/sequential_1/bidirectional_1/forward_lstm_1/time", "^StatefulPartitionedCall/sequential_1/bidirectional_1/forward_lstm_1/while/LoopControlInputs/_35"], "attr": {"is_constant": {"b": false}, "frame_name": {"s": "U3RhdGVmdWxQYXJ0aXRpb25lZENhbGwvc2VxdWVudGlhbF8xL2JpZGlyZWN0aW9uYWxfMS9mb3J3YXJkX2xzdG1fMS93aGlsZQ=="}, "T": {"type": "DT_INT32"}, "parallel_iterations": {"i": "32"}}}, {"name": "StatefulPartitionedCall/sequential_1/bidirectional_1/forward_lstm_1/while/enter/_32", "op": "Enter", "input": ["Func/StatefulPartitionedCall/input/_1", "^StatefulPartitionedCall/sequential_1/bidirectional_1/forward_lstm_1/while/LoopControlInputs/_35"], "attr": {"is_constant": {"b": true}, "_has_manual_control_dependencies": {"b": true}, "T": {"type": "DT_FLOAT"}, "frame_name": {"s": "U3RhdGVmdWxQYXJ0aXRpb25lZENhbGwvc2VxdWVudGlhbF8xL2JpZGlyZWN0aW9uYWxfMS9mb3J3YXJkX2xzdG1fMS93aGlsZQ=="}, "parallel_iterations": {"i": "32"}}}, {"name": "StatefulPartitionedCall/sequential_1/bidirectional_1/forward_lstm_1/while/enter/_33", "op": "Enter", "input": ["Func/StatefulPartitionedCall/input/_2", "^StatefulPartitionedCall/sequential_1/bidirectional_1/forward_lstm_1/while/LoopControlInputs/_35"], "attr": {"is_constant": {"b": true}, "_has_manual_control_dependencies": {"b": true}, "T": {"type": "DT_FLOAT"}, "frame_name": {"s": "U3RhdGVmdWxQYXJ0aXRpb25lZENhbGwvc2VxdWVudGlhbF8xL2JpZGlyZWN0aW9uYWxfMS9mb3J3YXJkX2xzdG1fMS93aGlsZQ=="}, "parallel_iterations": {"i": "32"}}}, {"name": "StatefulPartitionedCall/sequential_1/bidirectional_1/forward_lstm_1/while/enter/_34", "op": "Enter", "input": ["Func/StatefulPartitionedCall/input/_3", "^StatefulPartitionedCall/sequential_1/bidirectional_1/forward_lstm_1/while/LoopControlInputs/_35"], "attr": {"is_constant": {"b": true}, "_has_manual_control_dependencies": {"b": true}, "T": {"type": "DT_FLOAT"}, "frame_name": {"s": "U3RhdGVmdWxQYXJ0aXRpb25lZENhbGwvc2VxdWVudGlhbF8xL2JpZGlyZWN0aW9uYWxfMS9mb3J3YXJkX2xzdG1fMS93aGlsZQ=="}, "parallel_iterations": {"i": "32"}}}, {"name": "StatefulPartitionedCall/sequential_1/bidirectional_1/backward_lstm_1/while/enter/_72", "op": "Enter", "input": ["StatefulPartitionedCall/sequential_1/bidirectional_1/backward_lstm_1/TensorArrayV2_1", "^StatefulPartitionedCall/sequential_1/bidirectional_1/backward_lstm_1/while/LoopControlInputs/_79"], "attr": {"is_constant": {"b": false}, "frame_name": {"s": "U3RhdGVmdWxQYXJ0aXRpb25lZENhbGwvc2VxdWVudGlhbF8xL2JpZGlyZWN0aW9uYWxfMS9iYWNrd2FyZF9sc3RtXzEvd2hpbGU="}, "T": {"type": "DT_VARIANT"}, "parallel_iterations": {"i": "32"}}}, {"name": "StatefulPartitionedCall/sequential_1/bidirectional_1/backward_lstm_1/while/enter/_75", "op": "Enter", "input": ["StatefulPartitionedCall/sequential_1/bidirectional_1/backward_lstm_1/TensorArrayUnstack/TensorListFromTensor", "^StatefulPartitionedCall/sequential_1/bidirectional_1/backward_lstm_1/while/LoopControlInputs/_79"], "attr": {"is_constant": {"b": false}, "frame_name": {"s": "U3RhdGVmdWxQYXJ0aXRpb25lZENhbGwvc2VxdWVudGlhbF8xL2JpZGlyZWN0aW9uYWxfMS9iYWNrd2FyZF9sc3RtXzEvd2hpbGU="}, "T": {"type": "DT_VARIANT"}, "parallel_iterations": {"i": "32"}}}, {"name": "StatefulPartitionedCall/sequential_1/bidirectional_1/backward_lstm_1/while/enter/_70", "op": "Enter", "input": ["StatefulPartitionedCall/sequential_1/bidirectional_1/backward_lstm_1/Max", "^StatefulPartitionedCall/sequential_1/bidirectional_1/backward_lstm_1/while/LoopControlInputs/_79"], "attr": {"is_constant": {"b": false}, "frame_name": {"s": "U3RhdGVmdWxQYXJ0aXRpb25lZENhbGwvc2VxdWVudGlhbF8xL2JpZGlyZWN0aW9uYWxfMS9iYWNrd2FyZF9sc3RtXzEvd2hpbGU="}, "T": {"type": "DT_INT32"}, "parallel_iterations": {"i": "32"}}}, {"name": "StatefulPartitionedCall/sequential_1/bidirectional_1/backward_lstm_1/while/enter/_69", "op": "Enter", "input": ["StatefulPartitionedCall/sequential_1/bidirectional_1/backward_lstm_1/while/loop_counter", "^StatefulPartitionedCall/sequential_1/bidirectional_1/backward_lstm_1/while/LoopControlInputs/_79"], "attr": {"is_constant": {"b": false}, "frame_name": {"s": "U3RhdGVmdWxQYXJ0aXRpb25lZENhbGwvc2VxdWVudGlhbF8xL2JpZGlyZWN0aW9uYWxfMS9iYWNrd2FyZF9sc3RtXzEvd2hpbGU="}, "T": {"type": "DT_INT32"}, "parallel_iterations": {"i": "32"}}}, {"name": "StatefulPartitionedCall/sequential_1/bidirectional_1/backward_lstm_1/while/enter/_73", "op": "Enter", "input": ["StatefulPartitionedCall/sequential_1/bidirectional_1/backward_lstm_1/zeros", "^StatefulPartitionedCall/sequential_1/bidirectional_1/backward_lstm_1/while/LoopControlInputs/_79"], "attr": {"is_constant": {"b": false}, "frame_name": {"s": "U3RhdGVmdWxQYXJ0aXRpb25lZENhbGwvc2VxdWVudGlhbF8xL2JpZGlyZWN0aW9uYWxfMS9iYWNrd2FyZF9sc3RtXzEvd2hpbGU="}, "T": {"type": "DT_FLOAT"}, "parallel_iterations": {"i": "32"}}}, {"name": "StatefulPartitionedCall/sequential_1/bidirectional_1/backward_lstm_1/while/enter/_74", "op": "Enter", "input": ["StatefulPartitionedCall/sequential_1/bidirectional_1/backward_lstm_1/zeros_1", "^StatefulPartitionedCall/sequential_1/bidirectional_1/backward_lstm_1/while/LoopControlInputs/_79"], "attr": {"is_constant": {"b": false}, "frame_name": {"s": "U3RhdGVmdWxQYXJ0aXRpb25lZENhbGwvc2VxdWVudGlhbF8xL2JpZGlyZWN0aW9uYWxfMS9iYWNrd2FyZF9sc3RtXzEvd2hpbGU="}, "T": {"type": "DT_FLOAT"}, "parallel_iterations": {"i": "32"}}}, {"name": "StatefulPartitionedCall/sequential_1/bidirectional_1/backward_lstm_1/while/enter/_71", "op": "Enter", "input": ["StatefulPartitionedCall/sequential_1/bidirectional_1/backward_lstm_1/time", "^StatefulPartitionedCall/sequential_1/bidirectional_1/backward_lstm_1/while/LoopControlInputs/_79"], "attr": {"is_constant": {"b": false}, "frame_name": {"s": "U3RhdGVmdWxQYXJ0aXRpb25lZENhbGwvc2VxdWVudGlhbF8xL2JpZGlyZWN0aW9uYWxfMS9iYWNrd2FyZF9sc3RtXzEvd2hpbGU="}, "T": {"type": "DT_INT32"}, "parallel_iterations": {"i": "32"}}}, {"name": "StatefulPartitionedCall/sequential_1/bidirectional_1/backward_lstm_1/while/enter/_76", "op": "Enter", "input": ["Func/StatefulPartitionedCall/input/_4", "^StatefulPartitionedCall/sequential_1/bidirectional_1/backward_lstm_1/while/LoopControlInputs/_79"], "attr": {"is_constant": {"b": true}, "frame_name": {"s": "U3RhdGVmdWxQYXJ0aXRpb25lZENhbGwvc2VxdWVudGlhbF8xL2JpZGlyZWN0aW9uYWxfMS9iYWNrd2FyZF9sc3RtXzEvd2hpbGU="}, "T": {"type": "DT_FLOAT"}, "_has_manual_control_dependencies": {"b": true}, "parallel_iterations": {"i": "32"}}}, {"name": "StatefulPartitionedCall/sequential_1/bidirectional_1/backward_lstm_1/while/enter/_77", "op": "Enter", "input": ["Func/StatefulPartitionedCall/input/_5", "^StatefulPartitionedCall/sequential_1/bidirectional_1/backward_lstm_1/while/LoopControlInputs/_79"], "attr": {"is_constant": {"b": true}, "_has_manual_control_dependencies": {"b": true}, "T": {"type": "DT_FLOAT"}, "frame_name": {"s": "U3RhdGVmdWxQYXJ0aXRpb25lZENhbGwvc2VxdWVudGlhbF8xL2JpZGlyZWN0aW9uYWxfMS9iYWNrd2FyZF9sc3RtXzEvd2hpbGU="}, "parallel_iterations": {"i": "32"}}}, {"name": "StatefulPartitionedCall/sequential_1/bidirectional_1/backward_lstm_1/while/enter/_78", "op": "Enter", "input": ["Func/StatefulPartitionedCall/input/_6", "^StatefulPartitionedCall/sequential_1/bidirectional_1/backward_lstm_1/while/LoopControlInputs/_79"], "attr": {"is_constant": {"b": true}, "frame_name": {"s": "U3RhdGVmdWxQYXJ0aXRpb25lZENhbGwvc2VxdWVudGlhbF8xL2JpZGlyZWN0aW9uYWxfMS9iYWNrd2FyZF9sc3RtXzEvd2hpbGU="}, "T": {"type": "DT_FLOAT"}, "_has_manual_control_dependencies": {"b": true}, "parallel_iterations": {"i": "32"}}}, {"name": "StatefulPartitionedCall/sequential_1/bidirectional_1/forward_lstm_1/while/merge/_39", "op": "Merge", "input": ["StatefulPartitionedCall/sequential_1/bidirectional_1/forward_lstm_1/while/enter/_28", "StatefulPartitionedCall/sequential_1/bidirectional_1/forward_lstm_1/while/next_iteration/_63"], "attr": {"N": {"i": "2"}, "_has_manual_control_dependencies": {"b": true}, "T": {"type": "DT_VARIANT"}}}, {"name": "StatefulPartitionedCall/sequential_1/bidirectional_1/forward_lstm_1/while/merge/_42", "op": "Merge", "input": ["StatefulPartitionedCall/sequential_1/bidirectional_1/forward_lstm_1/while/enter/_31", "StatefulPartitionedCall/sequential_1/bidirectional_1/forward_lstm_1/while/next_iteration/_66"], "attr": {"N": {"i": "2"}, "_has_manual_control_dependencies": {"b": true}, "T": {"type": "DT_VARIANT"}}}, {"name": "StatefulPartitionedCall/sequential_1/bidirectional_1/forward_lstm_1/while/merge/_37", "op": "Merge", "input": ["StatefulPartitionedCall/sequential_1/bidirectional_1/forward_lstm_1/while/enter/_26", "StatefulPartitionedCall/sequential_1/bidirectional_1/forward_lstm_1/while/next_iteration/_61"], "attr": {"N": {"i": "2"}, "_has_manual_control_dependencies": {"b": true}, "T": {"type": "DT_INT32"}}}, {"name": "StatefulPartitionedCall/sequential_1/bidirectional_1/forward_lstm_1/while/merge/_36", "op": "Merge", "input": ["StatefulPartitionedCall/sequential_1/bidirectional_1/forward_lstm_1/while/enter/_25", "StatefulPartitionedCall/sequential_1/bidirectional_1/forward_lstm_1/while/next_iteration/_60"], "attr": {"N": {"i": "2"}, "_has_manual_control_dependencies": {"b": true}, "T": {"type": "DT_INT32"}}}, {"name": "StatefulPartitionedCall/sequential_1/bidirectional_1/forward_lstm_1/while/merge/_40", "op": "Merge", "input": ["StatefulPartitionedCall/sequential_1/bidirectional_1/forward_lstm_1/while/enter/_29", "StatefulPartitionedCall/sequential_1/bidirectional_1/forward_lstm_1/while/next_iteration/_64"], "attr": {"N": {"i": "2"}, "_has_manual_control_dependencies": {"b": true}, "T": {"type": "DT_FLOAT"}}}, {"name": "StatefulPartitionedCall/sequential_1/bidirectional_1/forward_lstm_1/while/merge/_41", "op": "Merge", "input": ["StatefulPartitionedCall/sequential_1/bidirectional_1/forward_lstm_1/while/enter/_30", "StatefulPartitionedCall/sequential_1/bidirectional_1/forward_lstm_1/while/next_iteration/_65"], "attr": {"N": {"i": "2"}, "_has_manual_control_dependencies": {"b": true}, "T": {"type": "DT_FLOAT"}}}, {"name": "StatefulPartitionedCall/sequential_1/bidirectional_1/forward_lstm_1/while/merge/_38", "op": "Merge", "input": ["StatefulPartitionedCall/sequential_1/bidirectional_1/forward_lstm_1/while/enter/_27", "StatefulPartitionedCall/sequential_1/bidirectional_1/forward_lstm_1/while/next_iteration/_62"], "attr": {"N": {"i": "2"}, "_has_manual_control_dependencies": {"b": true}, "T": {"type": "DT_INT32"}}}, {"name": "StatefulPartitionedCall/sequential_1/bidirectional_1/backward_lstm_1/while/merge/_83", "op": "Merge", "input": ["StatefulPartitionedCall/sequential_1/bidirectional_1/backward_lstm_1/while/enter/_72", "StatefulPartitionedCall/sequential_1/bidirectional_1/backward_lstm_1/while/next_iteration/_107"], "attr": {"N": {"i": "2"}, "_has_manual_control_dependencies": {"b": true}, "T": {"type": "DT_VARIANT"}}}, {"name": "StatefulPartitionedCall/sequential_1/bidirectional_1/backward_lstm_1/while/merge/_86", "op": "Merge", "input": ["StatefulPartitionedCall/sequential_1/bidirectional_1/backward_lstm_1/while/enter/_75", "StatefulPartitionedCall/sequential_1/bidirectional_1/backward_lstm_1/while/next_iteration/_110"], "attr": {"N": {"i": "2"}, "_has_manual_control_dependencies": {"b": true}, "T": {"type": "DT_VARIANT"}}}, {"name": "StatefulPartitionedCall/sequential_1/bidirectional_1/backward_lstm_1/while/merge/_81", "op": "Merge", "input": ["StatefulPartitionedCall/sequential_1/bidirectional_1/backward_lstm_1/while/enter/_70", "StatefulPartitionedCall/sequential_1/bidirectional_1/backward_lstm_1/while/next_iteration/_105"], "attr": {"N": {"i": "2"}, "_has_manual_control_dependencies": {"b": true}, "T": {"type": "DT_INT32"}}}, {"name": "StatefulPartitionedCall/sequential_1/bidirectional_1/backward_lstm_1/while/merge/_80", "op": "Merge", "input": ["StatefulPartitionedCall/sequential_1/bidirectional_1/backward_lstm_1/while/enter/_69", "StatefulPartitionedCall/sequential_1/bidirectional_1/backward_lstm_1/while/next_iteration/_104"], "attr": {"N": {"i": "2"}, "_has_manual_control_dependencies": {"b": true}, "T": {"type": "DT_INT32"}}}, {"name": "StatefulPartitionedCall/sequential_1/bidirectional_1/backward_lstm_1/while/merge/_84", "op": "Merge", "input": ["StatefulPartitionedCall/sequential_1/bidirectional_1/backward_lstm_1/while/enter/_73", "StatefulPartitionedCall/sequential_1/bidirectional_1/backward_lstm_1/while/next_iteration/_108"], "attr": {"N": {"i": "2"}, "_has_manual_control_dependencies": {"b": true}, "T": {"type": "DT_FLOAT"}}}, {"name": "StatefulPartitionedCall/sequential_1/bidirectional_1/backward_lstm_1/while/merge/_85", "op": "Merge", "input": ["StatefulPartitionedCall/sequential_1/bidirectional_1/backward_lstm_1/while/enter/_74", "StatefulPartitionedCall/sequential_1/bidirectional_1/backward_lstm_1/while/next_iteration/_109"], "attr": {"N": {"i": "2"}, "_has_manual_control_dependencies": {"b": true}, "T": {"type": "DT_FLOAT"}}}, {"name": "StatefulPartitionedCall/sequential_1/bidirectional_1/backward_lstm_1/while/merge/_82", "op": "Merge", "input": ["StatefulPartitionedCall/sequential_1/bidirectional_1/backward_lstm_1/while/enter/_71", "StatefulPartitionedCall/sequential_1/bidirectional_1/backward_lstm_1/while/next_iteration/_106"], "attr": {"N": {"i": "2"}, "_has_manual_control_dependencies": {"b": true}, "T": {"type": "DT_INT32"}}}, {"name": "Func/StatefulPartitionedCall/sequential_1/bidirectional_1/forward_lstm_1/while/cond/_23/input_control_node/_199", "op": "NoOp", "input": ["^StatefulPartitionedCall/sequential_1/bidirectional_1/forward_lstm_1/while/enter/_32", "^StatefulPartitionedCall/sequential_1/bidirectional_1/forward_lstm_1/while/enter/_33", "^StatefulPartitionedCall/sequential_1/bidirectional_1/forward_lstm_1/while/enter/_34", "^StatefulPartitionedCall/sequential_1/bidirectional_1/forward_lstm_1/while/merge/_36", "^StatefulPartitionedCall/sequential_1/bidirectional_1/forward_lstm_1/while/merge/_37", "^StatefulPartitionedCall/sequential_1/bidirectional_1/forward_lstm_1/while/merge/_38", "^StatefulPartitionedCall/sequential_1/bidirectional_1/forward_lstm_1/while/merge/_39", "^StatefulPartitionedCall/sequential_1/bidirectional_1/forward_lstm_1/while/merge/_40", "^StatefulPartitionedCall/sequential_1/bidirectional_1/forward_lstm_1/while/merge/_41", "^StatefulPartitionedCall/sequential_1/bidirectional_1/forward_lstm_1/while/merge/_42"], "attr": {"_has_manual_control_dependencies": {"b": true}}}, {"name": "Func/StatefulPartitionedCall/sequential_1/bidirectional_1/backward_lstm_1/while/cond/_67/input_control_node/_233", "op": "NoOp", "input": ["^StatefulPartitionedCall/sequential_1/bidirectional_1/backward_lstm_1/while/enter/_76", "^StatefulPartitionedCall/sequential_1/bidirectional_1/backward_lstm_1/while/enter/_77", "^StatefulPartitionedCall/sequential_1/bidirectional_1/backward_lstm_1/while/enter/_78", "^StatefulPartitionedCall/sequential_1/bidirectional_1/backward_lstm_1/while/merge/_80", "^StatefulPartitionedCall/sequential_1/bidirectional_1/backward_lstm_1/while/merge/_81", "^StatefulPartitionedCall/sequential_1/bidirectional_1/backward_lstm_1/while/merge/_82", "^StatefulPartitionedCall/sequential_1/bidirectional_1/backward_lstm_1/while/merge/_83", "^StatefulPartitionedCall/sequential_1/bidirectional_1/backward_lstm_1/while/merge/_84", "^StatefulPartitionedCall/sequential_1/bidirectional_1/backward_lstm_1/while/merge/_85", "^StatefulPartitionedCall/sequential_1/bidirectional_1/backward_lstm_1/while/merge/_86"], "attr": {"_has_manual_control_dependencies": {"b": true}}}, {"name": "StatefulPartitionedCall/sequential_1/bidirectional_1/forward_lstm_1/while/cond/_23/sequential_1/bidirectional_1/forward_lstm_1/while/Less_1", "op": "Less", "input": ["StatefulPartitionedCall/sequential_1/bidirectional_1/forward_lstm_1/while/merge/_36", "StatefulPartitionedCall/sequential_1/bidirectional_1/forward_lstm_1/while/merge/_37", "^Func/StatefulPartitionedCall/sequential_1/bidirectional_1/forward_lstm_1/while/cond/_23/input_control_node/_199"], "attr": {"T": {"type": "DT_INT32"}}}, {"name": "StatefulPartitionedCall/sequential_1/bidirectional_1/forward_lstm_1/while/cond/_23/sequential_1/bidirectional_1/forward_lstm_1/while/Less/y", "op": "Const", "input": ["^Func/StatefulPartitionedCall/sequential_1/bidirectional_1/forward_lstm_1/while/cond/_23/input_control_node/_199"], "attr": {"value": {"tensor": {"dtype": "DT_INT32", "tensorShape": {}}}, "dtype": {"type": "DT_INT32"}}}, {"name": "StatefulPartitionedCall/sequential_1/bidirectional_1/backward_lstm_1/while/cond/_67/sequential_1/bidirectional_1/backward_lstm_1/while/Less_1", "op": "Less", "input": ["StatefulPartitionedCall/sequential_1/bidirectional_1/backward_lstm_1/while/merge/_80", "StatefulPartitionedCall/sequential_1/bidirectional_1/backward_lstm_1/while/merge/_81", "^Func/StatefulPartitionedCall/sequential_1/bidirectional_1/backward_lstm_1/while/cond/_67/input_control_node/_233"], "attr": {"T": {"type": "DT_INT32"}}}, {"name": "StatefulPartitionedCall/sequential_1/bidirectional_1/backward_lstm_1/while/cond/_67/sequential_1/bidirectional_1/backward_lstm_1/while/Less/y", "op": "Const", "input": ["^Func/StatefulPartitionedCall/sequential_1/bidirectional_1/backward_lstm_1/while/cond/_67/input_control_node/_233"], "attr": {"value": {"tensor": {"dtype": "DT_INT32", "tensorShape": {}}}, "dtype": {"type": "DT_INT32"}}}, {"name": "StatefulPartitionedCall/sequential_1/bidirectional_1/forward_lstm_1/while/cond/_23/sequential_1/bidirectional_1/forward_lstm_1/while/Less", "op": "Less", "input": ["StatefulPartitionedCall/sequential_1/bidirectional_1/forward_lstm_1/while/merge/_38", "StatefulPartitionedCall/sequential_1/bidirectional_1/forward_lstm_1/while/cond/_23/sequential_1/bidirectional_1/forward_lstm_1/while/Less/y"], "attr": {"T": {"type": "DT_INT32"}}}, {"name": "StatefulPartitionedCall/sequential_1/bidirectional_1/backward_lstm_1/while/cond/_67/sequential_1/bidirectional_1/backward_lstm_1/while/Less", "op": "Less", "input": ["StatefulPartitionedCall/sequential_1/bidirectional_1/backward_lstm_1/while/merge/_82", "StatefulPartitionedCall/sequential_1/bidirectional_1/backward_lstm_1/while/cond/_67/sequential_1/bidirectional_1/backward_lstm_1/while/Less/y"], "attr": {"T": {"type": "DT_INT32"}}}, {"name": "StatefulPartitionedCall/sequential_1/bidirectional_1/forward_lstm_1/while/cond/_23/sequential_1/bidirectional_1/forward_lstm_1/while/LogicalAnd", "op": "LogicalAnd", "input": ["StatefulPartitionedCall/sequential_1/bidirectional_1/forward_lstm_1/while/cond/_23/sequential_1/bidirectional_1/forward_lstm_1/while/Less_1", "StatefulPartitionedCall/sequential_1/bidirectional_1/forward_lstm_1/while/cond/_23/sequential_1/bidirectional_1/forward_lstm_1/while/Less"]}, {"name": "StatefulPartitionedCall/sequential_1/bidirectional_1/backward_lstm_1/while/cond/_67/sequential_1/bidirectional_1/backward_lstm_1/while/LogicalAnd", "op": "LogicalAnd", "input": ["StatefulPartitionedCall/sequential_1/bidirectional_1/backward_lstm_1/while/cond/_67/sequential_1/bidirectional_1/backward_lstm_1/while/Less_1", "StatefulPartitionedCall/sequential_1/bidirectional_1/backward_lstm_1/while/cond/_67/sequential_1/bidirectional_1/backward_lstm_1/while/Less"]}, {"name": "StatefulPartitionedCall/sequential_1/bidirectional_1/forward_lstm_1/while/LoopCond/_43", "op": "LoopCond", "input": ["StatefulPartitionedCall/sequential_1/bidirectional_1/forward_lstm_1/while/cond/_23/sequential_1/bidirectional_1/forward_lstm_1/while/LogicalAnd"]}, {"name": "StatefulPartitionedCall/sequential_1/bidirectional_1/backward_lstm_1/while/LoopCond/_87", "op": "LoopCond", "input": ["StatefulPartitionedCall/sequential_1/bidirectional_1/backward_lstm_1/while/cond/_67/sequential_1/bidirectional_1/backward_lstm_1/while/LogicalAnd"]}, {"name": "StatefulPartitionedCall/sequential_1/bidirectional_1/forward_lstm_1/while/StatefulPartitionedCall/sequential_1/bidirectional_1/forward_lstm_1/Max_switch/_45", "op": "Switch", "input": ["StatefulPartitionedCall/sequential_1/bidirectional_1/forward_lstm_1/while/merge/_37", "StatefulPartitionedCall/sequential_1/bidirectional_1/forward_lstm_1/while/LoopCond/_43"], "attr": {"T": {"type": "DT_INT32"}}}, {"name": "StatefulPartitionedCall/sequential_1/bidirectional_1/forward_lstm_1/while/StatefulPartitionedCall/sequential_1/bidirectional_1/forward_lstm_1/while/loop_counter_switch/_44", "op": "Switch", "input": ["StatefulPartitionedCall/sequential_1/bidirectional_1/forward_lstm_1/while/merge/_36", "StatefulPartitionedCall/sequential_1/bidirectional_1/forward_lstm_1/while/LoopCond/_43"], "attr": {"T": {"type": "DT_INT32"}}}, {"name": "StatefulPartitionedCall/sequential_1/bidirectional_1/forward_lstm_1/while/StatefulPartitionedCall/sequential_1/bidirectional_1/forward_lstm_1/zeros_1_switch/_49", "op": "Switch", "input": ["StatefulPartitionedCall/sequential_1/bidirectional_1/forward_lstm_1/while/merge/_41", "StatefulPartitionedCall/sequential_1/bidirectional_1/forward_lstm_1/while/LoopCond/_43"], "attr": {"T": {"type": "DT_FLOAT"}}}, {"name": "StatefulPartitionedCall/sequential_1/bidirectional_1/forward_lstm_1/while/StatefulPartitionedCall/sequential_1/bidirectional_1/forward_lstm_1/TensorArrayUnstack/TensorListFromTensor_switch/_50", "op": "Switch", "input": ["StatefulPartitionedCall/sequential_1/bidirectional_1/forward_lstm_1/while/merge/_42", "StatefulPartitionedCall/sequential_1/bidirectional_1/forward_lstm_1/while/LoopCond/_43"], "attr": {"T": {"type": "DT_VARIANT"}}}, {"name": "StatefulPartitionedCall/sequential_1/bidirectional_1/forward_lstm_1/while/StatefulPartitionedCall/sequential_1/bidirectional_1/forward_lstm_1/time_switch/_46", "op": "Switch", "input": ["StatefulPartitionedCall/sequential_1/bidirectional_1/forward_lstm_1/while/merge/_38", "StatefulPartitionedCall/sequential_1/bidirectional_1/forward_lstm_1/while/LoopCond/_43"], "attr": {"T": {"type": "DT_INT32"}}}, {"name": "StatefulPartitionedCall/sequential_1/bidirectional_1/forward_lstm_1/while/StatefulPartitionedCall/sequential_1/bidirectional_1/forward_lstm_1/zeros_switch/_48", "op": "Switch", "input": ["StatefulPartitionedCall/sequential_1/bidirectional_1/forward_lstm_1/while/merge/_40", "StatefulPartitionedCall/sequential_1/bidirectional_1/forward_lstm_1/while/LoopCond/_43"], "attr": {"T": {"type": "DT_FLOAT"}}}, {"name": "StatefulPartitionedCall/sequential_1/bidirectional_1/forward_lstm_1/while/StatefulPartitionedCall/sequential_1/bidirectional_1/forward_lstm_1/TensorArrayV2_1_switch/_47", "op": "Switch", "input": ["StatefulPartitionedCall/sequential_1/bidirectional_1/forward_lstm_1/while/merge/_39", "StatefulPartitionedCall/sequential_1/bidirectional_1/forward_lstm_1/while/LoopCond/_43"], "attr": {"T": {"type": "DT_VARIANT"}}}, {"name": "StatefulPartitionedCall/sequential_1/bidirectional_1/backward_lstm_1/while/StatefulPartitionedCall/sequential_1/bidirectional_1/backward_lstm_1/Max_switch/_89", "op": "Switch", "input": ["StatefulPartitionedCall/sequential_1/bidirectional_1/backward_lstm_1/while/merge/_81", "StatefulPartitionedCall/sequential_1/bidirectional_1/backward_lstm_1/while/LoopCond/_87"], "attr": {"T": {"type": "DT_INT32"}}}, {"name": "StatefulPartitionedCall/sequential_1/bidirectional_1/backward_lstm_1/while/StatefulPartitionedCall/sequential_1/bidirectional_1/backward_lstm_1/while/loop_counter_switch/_88", "op": "Switch", "input": ["StatefulPartitionedCall/sequential_1/bidirectional_1/backward_lstm_1/while/merge/_80", "StatefulPartitionedCall/sequential_1/bidirectional_1/backward_lstm_1/while/LoopCond/_87"], "attr": {"T": {"type": "DT_INT32"}}}, {"name": "StatefulPartitionedCall/sequential_1/bidirectional_1/backward_lstm_1/while/StatefulPartitionedCall/sequential_1/bidirectional_1/backward_lstm_1/zeros_1_switch/_93", "op": "Switch", "input": ["StatefulPartitionedCall/sequential_1/bidirectional_1/backward_lstm_1/while/merge/_85", "StatefulPartitionedCall/sequential_1/bidirectional_1/backward_lstm_1/while/LoopCond/_87"], "attr": {"T": {"type": "DT_FLOAT"}}}, {"name": "StatefulPartitionedCall/sequential_1/bidirectional_1/backward_lstm_1/while/StatefulPartitionedCall/sequential_1/bidirectional_1/backward_lstm_1/TensorArrayUnstack/TensorListFromTensor_switch/_94", "op": "Switch", "input": ["StatefulPartitionedCall/sequential_1/bidirectional_1/backward_lstm_1/while/merge/_86", "StatefulPartitionedCall/sequential_1/bidirectional_1/backward_lstm_1/while/LoopCond/_87"], "attr": {"T": {"type": "DT_VARIANT"}}}, {"name": "StatefulPartitionedCall/sequential_1/bidirectional_1/backward_lstm_1/while/StatefulPartitionedCall/sequential_1/bidirectional_1/backward_lstm_1/time_switch/_90", "op": "Switch", "input": ["StatefulPartitionedCall/sequential_1/bidirectional_1/backward_lstm_1/while/merge/_82", "StatefulPartitionedCall/sequential_1/bidirectional_1/backward_lstm_1/while/LoopCond/_87"], "attr": {"T": {"type": "DT_INT32"}}}, {"name": "StatefulPartitionedCall/sequential_1/bidirectional_1/backward_lstm_1/while/StatefulPartitionedCall/sequential_1/bidirectional_1/backward_lstm_1/zeros_switch/_92", "op": "Switch", "input": ["StatefulPartitionedCall/sequential_1/bidirectional_1/backward_lstm_1/while/merge/_84", "StatefulPartitionedCall/sequential_1/bidirectional_1/backward_lstm_1/while/LoopCond/_87"], "attr": {"T": {"type": "DT_FLOAT"}}}, {"name": "StatefulPartitionedCall/sequential_1/bidirectional_1/backward_lstm_1/while/StatefulPartitionedCall/sequential_1/bidirectional_1/backward_lstm_1/TensorArrayV2_1_switch/_91", "op": "Switch", "input": ["StatefulPartitionedCall/sequential_1/bidirectional_1/backward_lstm_1/while/merge/_83", "StatefulPartitionedCall/sequential_1/bidirectional_1/backward_lstm_1/while/LoopCond/_87"], "attr": {"T": {"type": "DT_VARIANT"}}}, {"name": "StatefulPartitionedCall/sequential_1/bidirectional_1/forward_lstm_1/while/exit/_53", "op": "Exit", "input": ["StatefulPartitionedCall/sequential_1/bidirectional_1/forward_lstm_1/while/StatefulPartitionedCall/sequential_1/bidirectional_1/forward_lstm_1/Max_switch/_45"], "attr": {"_has_manual_control_dependencies": {"b": true}, "T": {"type": "DT_INT32"}}}, {"name": "StatefulPartitionedCall/sequential_1/bidirectional_1/forward_lstm_1/while/exit/_52", "op": "Exit", "input": ["StatefulPartitionedCall/sequential_1/bidirectional_1/forward_lstm_1/while/StatefulPartitionedCall/sequential_1/bidirectional_1/forward_lstm_1/while/loop_counter_switch/_44"], "attr": {"_has_manual_control_dependencies": {"b": true}, "T": {"type": "DT_INT32"}}}, {"name": "StatefulPartitionedCall/sequential_1/bidirectional_1/forward_lstm_1/while/loop_body_control/_51", "op": "Identity", "input": ["StatefulPartitionedCall/sequential_1/bidirectional_1/forward_lstm_1/while/StatefulPartitionedCall/sequential_1/bidirectional_1/forward_lstm_1/while/loop_counter_switch/_44:1"], "attr": {"_has_manual_control_dependencies": {"b": true}, "T": {"type": "DT_INT32"}}}, {"name": "StatefulPartitionedCall/sequential_1/bidirectional_1/forward_lstm_1/while/exit/_57", "op": "Exit", "input": ["StatefulPartitionedCall/sequential_1/bidirectional_1/forward_lstm_1/while/StatefulPartitionedCall/sequential_1/bidirectional_1/forward_lstm_1/zeros_1_switch/_49"], "attr": {"_has_manual_control_dependencies": {"b": true}, "T": {"type": "DT_FLOAT"}}}, {"name": "StatefulPartitionedCall/sequential_1/bidirectional_1/forward_lstm_1/while/exit/_58", "op": "Exit", "input": ["StatefulPartitionedCall/sequential_1/bidirectional_1/forward_lstm_1/while/StatefulPartitionedCall/sequential_1/bidirectional_1/forward_lstm_1/TensorArrayUnstack/TensorListFromTensor_switch/_50"], "attr": {"_has_manual_control_dependencies": {"b": true}, "T": {"type": "DT_VARIANT"}}}, {"name": "StatefulPartitionedCall/sequential_1/bidirectional_1/forward_lstm_1/while/exit/_54", "op": "Exit", "input": ["StatefulPartitionedCall/sequential_1/bidirectional_1/forward_lstm_1/while/StatefulPartitionedCall/sequential_1/bidirectional_1/forward_lstm_1/time_switch/_46"], "attr": {"_has_manual_control_dependencies": {"b": true}, "T": {"type": "DT_INT32"}}}, {"name": "StatefulPartitionedCall/sequential_1/bidirectional_1/forward_lstm_1/while/exit/_56", "op": "Exit", "input": ["StatefulPartitionedCall/sequential_1/bidirectional_1/forward_lstm_1/while/StatefulPartitionedCall/sequential_1/bidirectional_1/forward_lstm_1/zeros_switch/_48"], "attr": {"_has_manual_control_dependencies": {"b": true}, "T": {"type": "DT_FLOAT"}}}, {"name": "StatefulPartitionedCall/sequential_1/bidirectional_1/forward_lstm_1/while/exit/_55", "op": "Exit", "input": ["StatefulPartitionedCall/sequential_1/bidirectional_1/forward_lstm_1/while/StatefulPartitionedCall/sequential_1/bidirectional_1/forward_lstm_1/TensorArrayV2_1_switch/_47"], "attr": {"_has_manual_control_dependencies": {"b": true}, "T": {"type": "DT_VARIANT"}}}, {"name": "StatefulPartitionedCall/sequential_1/bidirectional_1/backward_lstm_1/while/exit/_97", "op": "Exit", "input": ["StatefulPartitionedCall/sequential_1/bidirectional_1/backward_lstm_1/while/StatefulPartitionedCall/sequential_1/bidirectional_1/backward_lstm_1/Max_switch/_89"], "attr": {"_has_manual_control_dependencies": {"b": true}, "T": {"type": "DT_INT32"}}}, {"name": "StatefulPartitionedCall/sequential_1/bidirectional_1/backward_lstm_1/while/exit/_96", "op": "Exit", "input": ["StatefulPartitionedCall/sequential_1/bidirectional_1/backward_lstm_1/while/StatefulPartitionedCall/sequential_1/bidirectional_1/backward_lstm_1/while/loop_counter_switch/_88"], "attr": {"_has_manual_control_dependencies": {"b": true}, "T": {"type": "DT_INT32"}}}, {"name": "StatefulPartitionedCall/sequential_1/bidirectional_1/backward_lstm_1/while/loop_body_control/_95", "op": "Identity", "input": ["StatefulPartitionedCall/sequential_1/bidirectional_1/backward_lstm_1/while/StatefulPartitionedCall/sequential_1/bidirectional_1/backward_lstm_1/while/loop_counter_switch/_88:1"], "attr": {"_has_manual_control_dependencies": {"b": true}, "T": {"type": "DT_INT32"}}}, {"name": "StatefulPartitionedCall/sequential_1/bidirectional_1/backward_lstm_1/while/exit/_101", "op": "Exit", "input": ["StatefulPartitionedCall/sequential_1/bidirectional_1/backward_lstm_1/while/StatefulPartitionedCall/sequential_1/bidirectional_1/backward_lstm_1/zeros_1_switch/_93"], "attr": {"_has_manual_control_dependencies": {"b": true}, "T": {"type": "DT_FLOAT"}}}, {"name": "StatefulPartitionedCall/sequential_1/bidirectional_1/backward_lstm_1/while/exit/_102", "op": "Exit", "input": ["StatefulPartitionedCall/sequential_1/bidirectional_1/backward_lstm_1/while/StatefulPartitionedCall/sequential_1/bidirectional_1/backward_lstm_1/TensorArrayUnstack/TensorListFromTensor_switch/_94"], "attr": {"_has_manual_control_dependencies": {"b": true}, "T": {"type": "DT_VARIANT"}}}, {"name": "StatefulPartitionedCall/sequential_1/bidirectional_1/backward_lstm_1/while/exit/_98", "op": "Exit", "input": ["StatefulPartitionedCall/sequential_1/bidirectional_1/backward_lstm_1/while/StatefulPartitionedCall/sequential_1/bidirectional_1/backward_lstm_1/time_switch/_90"], "attr": {"_has_manual_control_dependencies": {"b": true}, "T": {"type": "DT_INT32"}}}, {"name": "StatefulPartitionedCall/sequential_1/bidirectional_1/backward_lstm_1/while/exit/_100", "op": "Exit", "input": ["StatefulPartitionedCall/sequential_1/bidirectional_1/backward_lstm_1/while/StatefulPartitionedCall/sequential_1/bidirectional_1/backward_lstm_1/zeros_switch/_92"], "attr": {"_has_manual_control_dependencies": {"b": true}, "T": {"type": "DT_FLOAT"}}}, {"name": "StatefulPartitionedCall/sequential_1/bidirectional_1/backward_lstm_1/while/exit/_99", "op": "Exit", "input": ["StatefulPartitionedCall/sequential_1/bidirectional_1/backward_lstm_1/while/StatefulPartitionedCall/sequential_1/bidirectional_1/backward_lstm_1/TensorArrayV2_1_switch/_91"], "attr": {"_has_manual_control_dependencies": {"b": true}, "T": {"type": "DT_VARIANT"}}}, {"name": "Func/StatefulPartitionedCall/sequential_1/bidirectional_1/forward_lstm_1/while/body/_24/input_control_node/_211", "op": "NoOp", "input": ["^StatefulPartitionedCall/sequential_1/bidirectional_1/forward_lstm_1/while/StatefulPartitionedCall/sequential_1/bidirectional_1/forward_lstm_1/Max_switch/_45", "^StatefulPartitionedCall/sequential_1/bidirectional_1/forward_lstm_1/while/StatefulPartitionedCall/sequential_1/bidirectional_1/forward_lstm_1/TensorArrayUnstack/TensorListFromTensor_switch/_50", "^StatefulPartitionedCall/sequential_1/bidirectional_1/forward_lstm_1/while/StatefulPartitionedCall/sequential_1/bidirectional_1/forward_lstm_1/TensorArrayV2_1_switch/_47", "^StatefulPartitionedCall/sequential_1/bidirectional_1/forward_lstm_1/while/StatefulPartitionedCall/sequential_1/bidirectional_1/forward_lstm_1/time_switch/_46", "^StatefulPartitionedCall/sequential_1/bidirectional_1/forward_lstm_1/while/loop_body_control/_51", "^StatefulPartitionedCall/sequential_1/bidirectional_1/forward_lstm_1/while/StatefulPartitionedCall/sequential_1/bidirectional_1/forward_lstm_1/zeros_1_switch/_49", "^StatefulPartitionedCall/sequential_1/bidirectional_1/forward_lstm_1/while/StatefulPartitionedCall/sequential_1/bidirectional_1/forward_lstm_1/zeros_switch/_48", "^StatefulPartitionedCall/sequential_1/bidirectional_1/forward_lstm_1/while/enter/_32", "^StatefulPartitionedCall/sequential_1/bidirectional_1/forward_lstm_1/while/enter/_33", "^StatefulPartitionedCall/sequential_1/bidirectional_1/forward_lstm_1/while/enter/_34"], "attr": {"_has_manual_control_dependencies": {"b": true}}}, {"name": "StatefulPartitionedCall/sequential_1/bidirectional_1/forward_lstm_1/TensorArrayV2Stack/TensorListStack", "op": "TensorListStack", "input": ["StatefulPartitionedCall/sequential_1/bidirectional_1/forward_lstm_1/while/exit/_55", "StatefulPartitionedCall/sequential_1/bidirectional_1/forward_lstm_1/TensorArrayV2Stack/TensorListStack/element_shape"], "attr": {"num_elements": {"i": "30"}, "element_dtype": {"type": "DT_FLOAT"}}}, {"name": "Func/StatefulPartitionedCall/sequential_1/bidirectional_1/backward_lstm_1/while/body/_68/input_control_node/_245", "op": "NoOp", "input": ["^StatefulPartitionedCall/sequential_1/bidirectional_1/backward_lstm_1/while/StatefulPartitionedCall/sequential_1/bidirectional_1/backward_lstm_1/Max_switch/_89", "^StatefulPartitionedCall/sequential_1/bidirectional_1/backward_lstm_1/while/StatefulPartitionedCall/sequential_1/bidirectional_1/backward_lstm_1/TensorArrayUnstack/TensorListFromTensor_switch/_94", "^StatefulPartitionedCall/sequential_1/bidirectional_1/backward_lstm_1/while/StatefulPartitionedCall/sequential_1/bidirectional_1/backward_lstm_1/TensorArrayV2_1_switch/_91", "^StatefulPartitionedCall/sequential_1/bidirectional_1/backward_lstm_1/while/StatefulPartitionedCall/sequential_1/bidirectional_1/backward_lstm_1/time_switch/_90", "^StatefulPartitionedCall/sequential_1/bidirectional_1/backward_lstm_1/while/loop_body_control/_95", "^StatefulPartitionedCall/sequential_1/bidirectional_1/backward_lstm_1/while/StatefulPartitionedCall/sequential_1/bidirectional_1/backward_lstm_1/zeros_1_switch/_93", "^StatefulPartitionedCall/sequential_1/bidirectional_1/backward_lstm_1/while/StatefulPartitionedCall/sequential_1/bidirectional_1/backward_lstm_1/zeros_switch/_92", "^StatefulPartitionedCall/sequential_1/bidirectional_1/backward_lstm_1/while/enter/_76", "^StatefulPartitionedCall/sequential_1/bidirectional_1/backward_lstm_1/while/enter/_77", "^StatefulPartitionedCall/sequential_1/bidirectional_1/backward_lstm_1/while/enter/_78"], "attr": {"_has_manual_control_dependencies": {"b": true}}}, {"name": "StatefulPartitionedCall/sequential_1/bidirectional_1/backward_lstm_1/TensorArrayV2Stack/TensorListStack", "op": "TensorListStack", "input": ["StatefulPartitionedCall/sequential_1/bidirectional_1/backward_lstm_1/while/exit/_99", "StatefulPartitionedCall/sequential_1/bidirectional_1/backward_lstm_1/TensorArrayV2Stack/TensorListStack/element_shape"], "attr": {"num_elements": {"i": "30"}, "element_dtype": {"type": "DT_FLOAT"}}}, {"name": "StatefulPartitionedCall/sequential_1/bidirectional_1/forward_lstm_1/while/body/_24/sequential_1/bidirectional_1/forward_lstm_1/while/add_1/y", "op": "Const", "input": ["^Func/StatefulPartitionedCall/sequential_1/bidirectional_1/forward_lstm_1/while/body/_24/input_control_node/_211"], "attr": {"value": {"tensor": {"dtype": "DT_INT32", "tensorShape": {}}}, "dtype": {"type": "DT_INT32"}}}, {"name": "StatefulPartitionedCall/sequential_1/bidirectional_1/forward_lstm_1/while/body/_24/sequential_1/bidirectional_1/forward_lstm_1/while/lstm_cell_1/split/split_dim", "op": "Const", "input": ["^Func/StatefulPartitionedCall/sequential_1/bidirectional_1/forward_lstm_1/while/body/_24/input_control_node/_211"], "attr": {"value": {"tensor": {"dtype": "DT_INT32", "tensorShape": {}}}, "dtype": {"type": "DT_INT32"}}}, {"name": "StatefulPartitionedCall/sequential_1/bidirectional_1/forward_lstm_1/while/body/_24/sequential_1/bidirectional_1/forward_lstm_1/while/add/y", "op": "Const", "input": ["^Func/StatefulPartitionedCall/sequential_1/bidirectional_1/forward_lstm_1/while/body/_24/input_control_node/_211"], "attr": {"value": {"tensor": {"dtype": "DT_INT32", "tensorShape": {}}}, "dtype": {"type": "DT_INT32"}}}, {"name": "Func/StatefulPartitionedCall/sequential_1/bidirectional_1/forward_lstm_1/while/body/_24/input/_214", "op": "Identity", "input": ["StatefulPartitionedCall/sequential_1/bidirectional_1/forward_lstm_1/while/StatefulPartitionedCall/sequential_1/bidirectional_1/forward_lstm_1/time_switch/_46:1", "^Func/StatefulPartitionedCall/sequential_1/bidirectional_1/forward_lstm_1/while/body/_24/input_control_node/_211"], "attr": {"T": {"type": "DT_INT32"}}}, {"name": "StatefulPartitionedCall/sequential_1/bidirectional_1/forward_lstm_1/while/body/_24/sequential_1/bidirectional_1/forward_lstm_1/while/TensorArrayV2Read/TensorListGetItem/element_shape", "op": "Const", "input": ["^Func/StatefulPartitionedCall/sequential_1/bidirectional_1/forward_lstm_1/while/body/_24/input_control_node/_211"], "attr": {"value": {"tensor": {"dtype": "DT_INT32", "tensorShape": {"dim": [{"size": "2"}]}}}, "dtype": {"type": "DT_INT32"}}}, {"name": "StatefulPartitionedCall/sequential_1/bidirectional_1/forward_lstm_1/while/body/_24/sequential_1/bidirectional_1/forward_lstm_1/while/lstm_cell_1/Cast/ReadVariableOp", "op": "Const", "input": ["^StatefulPartitionedCall/sequential_1/bidirectional_1/forward_lstm_1/while/enter/_32", "^Func/StatefulPartitionedCall/sequential_1/bidirectional_1/forward_lstm_1/while/body/_24/input_control_node/_211"], "attr": {"value": {"tensor": {"dtype": "DT_FLOAT", "tensorShape": {"dim": [{"size": "42"}, {"size": "512"}]}}}, "dtype": {"type": "DT_FLOAT"}}}, {"name": "StatefulPartitionedCall/sequential_1/bidirectional_1/forward_lstm_1/while/body/_24/sequential_1/bidirectional_1/forward_lstm_1/while/lstm_cell_1/Cast_1/ReadVariableOp", "op": "Const", "input": ["^StatefulPartitionedCall/sequential_1/bidirectional_1/forward_lstm_1/while/enter/_33", "^Func/StatefulPartitionedCall/sequential_1/bidirectional_1/forward_lstm_1/while/body/_24/input_control_node/_211"], "attr": {"value": {"tensor": {"dtype": "DT_FLOAT", "tensorShape": {"dim": [{"size": "128"}, {"size": "512"}]}}}, "dtype": {"type": "DT_FLOAT"}}}, {"name": "StatefulPartitionedCall/sequential_1/bidirectional_1/forward_lstm_1/while/body/_24/sequential_1/bidirectional_1/forward_lstm_1/while/lstm_cell_1/BiasAdd/ReadVariableOp", "op": "Const", "input": ["^StatefulPartitionedCall/sequential_1/bidirectional_1/forward_lstm_1/while/enter/_34", "^Func/StatefulPartitionedCall/sequential_1/bidirectional_1/forward_lstm_1/while/body/_24/input_control_node/_211"], "attr": {"value": {"tensor": {"dtype": "DT_FLOAT", "tensorShape": {"dim": [{"size": "512"}]}}}, "dtype": {"type": "DT_FLOAT"}}}, {"name": "StatefulPartitionedCall/sequential_1/bidirectional_1/forward_lstm_1/transpose_1", "op": "Transpose", "input": ["StatefulPartitionedCall/sequential_1/bidirectional_1/forward_lstm_1/TensorArrayV2Stack/TensorListStack", "StatefulPartitionedCall/sequential_1/bidirectional_1/forward_lstm_1/transpose_1/perm"], "attr": {"Tperm": {"type": "DT_INT32"}, "T": {"type": "DT_FLOAT"}}}, {"name": "StatefulPartitionedCall/sequential_1/bidirectional_1/backward_lstm_1/while/body/_68/sequential_1/bidirectional_1/backward_lstm_1/while/add_1/y", "op": "Const", "input": ["^Func/StatefulPartitionedCall/sequential_1/bidirectional_1/backward_lstm_1/while/body/_68/input_control_node/_245"], "attr": {"value": {"tensor": {"dtype": "DT_INT32", "tensorShape": {}}}, "dtype": {"type": "DT_INT32"}}}, {"name": "StatefulPartitionedCall/sequential_1/bidirectional_1/backward_lstm_1/while/body/_68/sequential_1/bidirectional_1/backward_lstm_1/while/lstm_cell_1/split/split_dim", "op": "Const", "input": ["^Func/StatefulPartitionedCall/sequential_1/bidirectional_1/backward_lstm_1/while/body/_68/input_control_node/_245"], "attr": {"value": {"tensor": {"dtype": "DT_INT32", "tensorShape": {}}}, "dtype": {"type": "DT_INT32"}}}, {"name": "StatefulPartitionedCall/sequential_1/bidirectional_1/backward_lstm_1/while/body/_68/sequential_1/bidirectional_1/backward_lstm_1/while/add/y", "op": "Const", "input": ["^Func/StatefulPartitionedCall/sequential_1/bidirectional_1/backward_lstm_1/while/body/_68/input_control_node/_245"], "attr": {"value": {"tensor": {"dtype": "DT_INT32", "tensorShape": {}}}, "dtype": {"type": "DT_INT32"}}}, {"name": "Func/StatefulPartitionedCall/sequential_1/bidirectional_1/backward_lstm_1/while/body/_68/input/_248", "op": "Identity", "input": ["StatefulPartitionedCall/sequential_1/bidirectional_1/backward_lstm_1/while/StatefulPartitionedCall/sequential_1/bidirectional_1/backward_lstm_1/time_switch/_90:1", "^Func/StatefulPartitionedCall/sequential_1/bidirectional_1/backward_lstm_1/while/body/_68/input_control_node/_245"], "attr": {"T": {"type": "DT_INT32"}}}, {"name": "StatefulPartitionedCall/sequential_1/bidirectional_1/backward_lstm_1/while/body/_68/sequential_1/bidirectional_1/backward_lstm_1/while/TensorArrayV2Read/TensorListGetItem/element_shape", "op": "Const", "input": ["^Func/StatefulPartitionedCall/sequential_1/bidirectional_1/backward_lstm_1/while/body/_68/input_control_node/_245"], "attr": {"value": {"tensor": {"dtype": "DT_INT32", "tensorShape": {"dim": [{"size": "2"}]}}}, "dtype": {"type": "DT_INT32"}}}, {"name": "StatefulPartitionedCall/sequential_1/bidirectional_1/backward_lstm_1/while/body/_68/sequential_1/bidirectional_1/backward_lstm_1/while/lstm_cell_1/Cast/ReadVariableOp", "op": "Const", "input": ["^StatefulPartitionedCall/sequential_1/bidirectional_1/backward_lstm_1/while/enter/_76", "^Func/StatefulPartitionedCall/sequential_1/bidirectional_1/backward_lstm_1/while/body/_68/input_control_node/_245"], "attr": {"value": {"tensor": {"dtype": "DT_FLOAT", "tensorShape": {"dim": [{"size": "42"}, {"size": "512"}]}}}, "dtype": {"type": "DT_FLOAT"}}}, {"name": "StatefulPartitionedCall/sequential_1/bidirectional_1/backward_lstm_1/while/body/_68/sequential_1/bidirectional_1/backward_lstm_1/while/lstm_cell_1/Cast_1/ReadVariableOp", "op": "Const", "input": ["^StatefulPartitionedCall/sequential_1/bidirectional_1/backward_lstm_1/while/enter/_77", "^Func/StatefulPartitionedCall/sequential_1/bidirectional_1/backward_lstm_1/while/body/_68/input_control_node/_245"], "attr": {"value": {"tensor": {"dtype": "DT_FLOAT", "tensorShape": {"dim": [{"size": "128"}, {"size": "512"}]}}}, "dtype": {"type": "DT_FLOAT"}}}, {"name": "StatefulPartitionedCall/sequential_1/bidirectional_1/backward_lstm_1/while/body/_68/sequential_1/bidirectional_1/backward_lstm_1/while/lstm_cell_1/BiasAdd/ReadVariableOp", "op": "Const", "input": ["^StatefulPartitionedCall/sequential_1/bidirectional_1/backward_lstm_1/while/enter/_78", "^Func/StatefulPartitionedCall/sequential_1/bidirectional_1/backward_lstm_1/while/body/_68/input_control_node/_245"], "attr": {"value": {"tensor": {"dtype": "DT_FLOAT", "tensorShape": {"dim": [{"size": "512"}]}}}, "dtype": {"type": "DT_FLOAT"}}}, {"name": "StatefulPartitionedCall/sequential_1/bidirectional_1/backward_lstm_1/transpose_1", "op": "Transpose", "input": ["StatefulPartitionedCall/sequential_1/bidirectional_1/backward_lstm_1/TensorArrayV2Stack/TensorListStack", "StatefulPartitionedCall/sequential_1/bidirectional_1/backward_lstm_1/transpose_1/perm"], "attr": {"Tperm": {"type": "DT_INT32"}, "T": {"type": "DT_FLOAT"}}}, {"name": "StatefulPartitionedCall/sequential_1/bidirectional_1/forward_lstm_1/while/body/_24/sequential_1/bidirectional_1/forward_lstm_1/while/add_1", "op": "AddV2", "input": ["StatefulPartitionedCall/sequential_1/bidirectional_1/forward_lstm_1/while/StatefulPartitionedCall/sequential_1/bidirectional_1/forward_lstm_1/while/loop_counter_switch/_44:1", "StatefulPartitionedCall/sequential_1/bidirectional_1/forward_lstm_1/while/body/_24/sequential_1/bidirectional_1/forward_lstm_1/while/add_1/y"], "attr": {"T": {"type": "DT_INT32"}}}, {"name": "StatefulPartitionedCall/sequential_1/bidirectional_1/forward_lstm_1/while/body/_24/sequential_1/bidirectional_1/forward_lstm_1/while/add", "op": "AddV2", "input": ["Func/StatefulPartitionedCall/sequential_1/bidirectional_1/forward_lstm_1/while/body/_24/input/_214", "StatefulPartitionedCall/sequential_1/bidirectional_1/forward_lstm_1/while/body/_24/sequential_1/bidirectional_1/forward_lstm_1/while/add/y"], "attr": {"T": {"type": "DT_INT32"}}}, {"name": "StatefulPartitionedCall/sequential_1/bidirectional_1/forward_lstm_1/while/body/_24/sequential_1/bidirectional_1/forward_lstm_1/while/TensorArrayV2Read/TensorListGetItem", "op": "TensorListGetItem", "input": ["StatefulPartitionedCall/sequential_1/bidirectional_1/forward_lstm_1/while/StatefulPartitionedCall/sequential_1/bidirectional_1/forward_lstm_1/TensorArrayUnstack/TensorListFromTensor_switch/_50:1", "Func/StatefulPartitionedCall/sequential_1/bidirectional_1/forward_lstm_1/while/body/_24/input/_214", "StatefulPartitionedCall/sequential_1/bidirectional_1/forward_lstm_1/while/body/_24/sequential_1/bidirectional_1/forward_lstm_1/while/TensorArrayV2Read/TensorListGetItem/element_shape"], "attr": {"element_dtype": {"type": "DT_FLOAT"}}}, {"name": "StatefulPartitionedCall/sequential_1/bidirectional_1/forward_lstm_1/while/body/_24/sequential_1/bidirectional_1/forward_lstm_1/while/lstm_cell_1/MatMul_1", "op": "MatMul", "input": ["StatefulPartitionedCall/sequential_1/bidirectional_1/forward_lstm_1/while/StatefulPartitionedCall/sequential_1/bidirectional_1/forward_lstm_1/zeros_switch/_48:1", "StatefulPartitionedCall/sequential_1/bidirectional_1/forward_lstm_1/while/body/_24/sequential_1/bidirectional_1/forward_lstm_1/while/lstm_cell_1/Cast_1/ReadVariableOp"], "device": "/device:CPU:0", "attr": {"transpose_a": {"b": false}, "grad_a": {"b": false}, "T": {"type": "DT_FLOAT"}, "grad_b": {"b": false}, "transpose_b": {"b": false}}}, {"name": "Func/StatefulPartitionedCall/sequential_1/bidirectional_1/forward_lstm_1/while/body/_24/output_control_node/_232", "op": "NoOp", "input": ["^StatefulPartitionedCall/sequential_1/bidirectional_1/forward_lstm_1/while/body/_24/sequential_1/bidirectional_1/forward_lstm_1/while/lstm_cell_1/BiasAdd/ReadVariableOp", "^StatefulPartitionedCall/sequential_1/bidirectional_1/forward_lstm_1/while/body/_24/sequential_1/bidirectional_1/forward_lstm_1/while/lstm_cell_1/Cast/ReadVariableOp", "^StatefulPartitionedCall/sequential_1/bidirectional_1/forward_lstm_1/while/body/_24/sequential_1/bidirectional_1/forward_lstm_1/while/lstm_cell_1/Cast_1/ReadVariableOp"], "attr": {"_has_manual_control_dependencies": {"b": true}}}, {"name": "StatefulPartitionedCall/sequential_1/bidirectional_1/forward_lstm_1/while/body/_24/sequential_1/bidirectional_1/forward_lstm_1/while/NoOp", "op": "NoOp", "input": ["^StatefulPartitionedCall/sequential_1/bidirectional_1/forward_lstm_1/while/body/_24/sequential_1/bidirectional_1/forward_lstm_1/while/lstm_cell_1/BiasAdd/ReadVariableOp", "^StatefulPartitionedCall/sequential_1/bidirectional_1/forward_lstm_1/while/body/_24/sequential_1/bidirectional_1/forward_lstm_1/while/lstm_cell_1/Cast/ReadVariableOp", "^StatefulPartitionedCall/sequential_1/bidirectional_1/forward_lstm_1/while/body/_24/sequential_1/bidirectional_1/forward_lstm_1/while/lstm_cell_1/Cast_1/ReadVariableOp"], "attr": {"_has_manual_control_dependencies": {"b": true}}}, {"name": "StatefulPartitionedCall/sequential_1/bidirectional_1/backward_lstm_1/while/body/_68/sequential_1/bidirectional_1/backward_lstm_1/while/add_1", "op": "AddV2", "input": ["StatefulPartitionedCall/sequential_1/bidirectional_1/backward_lstm_1/while/StatefulPartitionedCall/sequential_1/bidirectional_1/backward_lstm_1/while/loop_counter_switch/_88:1", "StatefulPartitionedCall/sequential_1/bidirectional_1/backward_lstm_1/while/body/_68/sequential_1/bidirectional_1/backward_lstm_1/while/add_1/y"], "attr": {"T": {"type": "DT_INT32"}}}, {"name": "StatefulPartitionedCall/sequential_1/bidirectional_1/backward_lstm_1/while/body/_68/sequential_1/bidirectional_1/backward_lstm_1/while/add", "op": "AddV2", "input": ["Func/StatefulPartitionedCall/sequential_1/bidirectional_1/backward_lstm_1/while/body/_68/input/_248", "StatefulPartitionedCall/sequential_1/bidirectional_1/backward_lstm_1/while/body/_68/sequential_1/bidirectional_1/backward_lstm_1/while/add/y"], "attr": {"T": {"type": "DT_INT32"}}}, {"name": "StatefulPartitionedCall/sequential_1/bidirectional_1/backward_lstm_1/while/body/_68/sequential_1/bidirectional_1/backward_lstm_1/while/TensorArrayV2Read/TensorListGetItem", "op": "TensorListGetItem", "input": ["StatefulPartitionedCall/sequential_1/bidirectional_1/backward_lstm_1/while/StatefulPartitionedCall/sequential_1/bidirectional_1/backward_lstm_1/TensorArrayUnstack/TensorListFromTensor_switch/_94:1", "Func/StatefulPartitionedCall/sequential_1/bidirectional_1/backward_lstm_1/while/body/_68/input/_248", "StatefulPartitionedCall/sequential_1/bidirectional_1/backward_lstm_1/while/body/_68/sequential_1/bidirectional_1/backward_lstm_1/while/TensorArrayV2Read/TensorListGetItem/element_shape"], "attr": {"element_dtype": {"type": "DT_FLOAT"}}}, {"name": "StatefulPartitionedCall/sequential_1/bidirectional_1/backward_lstm_1/while/body/_68/sequential_1/bidirectional_1/backward_lstm_1/while/lstm_cell_1/MatMul_1", "op": "MatMul", "input": ["StatefulPartitionedCall/sequential_1/bidirectional_1/backward_lstm_1/while/StatefulPartitionedCall/sequential_1/bidirectional_1/backward_lstm_1/zeros_switch/_92:1", "StatefulPartitionedCall/sequential_1/bidirectional_1/backward_lstm_1/while/body/_68/sequential_1/bidirectional_1/backward_lstm_1/while/lstm_cell_1/Cast_1/ReadVariableOp"], "device": "/device:CPU:0", "attr": {"grad_a": {"b": false}, "transpose_a": {"b": false}, "T": {"type": "DT_FLOAT"}, "grad_b": {"b": false}, "transpose_b": {"b": false}}}, {"name": "Func/StatefulPartitionedCall/sequential_1/bidirectional_1/backward_lstm_1/while/body/_68/output_control_node/_266", "op": "NoOp", "input": ["^StatefulPartitionedCall/sequential_1/bidirectional_1/backward_lstm_1/while/body/_68/sequential_1/bidirectional_1/backward_lstm_1/while/lstm_cell_1/BiasAdd/ReadVariableOp", "^StatefulPartitionedCall/sequential_1/bidirectional_1/backward_lstm_1/while/body/_68/sequential_1/bidirectional_1/backward_lstm_1/while/lstm_cell_1/Cast/ReadVariableOp", "^StatefulPartitionedCall/sequential_1/bidirectional_1/backward_lstm_1/while/body/_68/sequential_1/bidirectional_1/backward_lstm_1/while/lstm_cell_1/Cast_1/ReadVariableOp"], "attr": {"_has_manual_control_dependencies": {"b": true}}}, {"name": "StatefulPartitionedCall/sequential_1/bidirectional_1/backward_lstm_1/while/body/_68/sequential_1/bidirectional_1/backward_lstm_1/while/NoOp", "op": "NoOp", "input": ["^StatefulPartitionedCall/sequential_1/bidirectional_1/backward_lstm_1/while/body/_68/sequential_1/bidirectional_1/backward_lstm_1/while/lstm_cell_1/BiasAdd/ReadVariableOp", "^StatefulPartitionedCall/sequential_1/bidirectional_1/backward_lstm_1/while/body/_68/sequential_1/bidirectional_1/backward_lstm_1/while/lstm_cell_1/Cast/ReadVariableOp", "^StatefulPartitionedCall/sequential_1/bidirectional_1/backward_lstm_1/while/body/_68/sequential_1/bidirectional_1/backward_lstm_1/while/lstm_cell_1/Cast_1/ReadVariableOp"], "attr": {"_has_manual_control_dependencies": {"b": true}}}, {"name": "StatefulPartitionedCall/sequential_1/bidirectional_1/ReverseV2", "op": "ReverseV2", "input": ["StatefulPartitionedCall/sequential_1/bidirectional_1/backward_lstm_1/transpose_1", "StatefulPartitionedCall/sequential_1/bidirectional_1/ReverseV2/axis"], "attr": {"T": {"type": "DT_FLOAT"}, "Tidx": {"type": "DT_INT32"}}}, {"name": "StatefulPartitionedCall/sequential_1/bidirectional_1/forward_lstm_1/while/body/_24/sequential_1/bidirectional_1/forward_lstm_1/while/lstm_cell_1/Add", "op": "_FusedMatMul", "input": ["StatefulPartitionedCall/sequential_1/bidirectional_1/forward_lstm_1/while/body/_24/sequential_1/bidirectional_1/forward_lstm_1/while/TensorArrayV2Read/TensorListGetItem", "StatefulPartitionedCall/sequential_1/bidirectional_1/forward_lstm_1/while/body/_24/sequential_1/bidirectional_1/forward_lstm_1/while/lstm_cell_1/Cast/ReadVariableOp", "StatefulPartitionedCall/sequential_1/bidirectional_1/forward_lstm_1/while/body/_24/sequential_1/bidirectional_1/forward_lstm_1/while/lstm_cell_1/MatMul_1"], "device": "/device:CPU:0", "attr": {"transpose_a": {"b": false}, "transpose_b": {"b": false}, "fused_ops": {"list": {"s": ["Qmlhc0FkZA=="]}}, "num_args": {"i": "1"}, "leakyrelu_alpha": {"f": 0.2}, "epsilon": {"f": 0.0}, "T": {"type": "DT_FLOAT"}}}, {"name": "StatefulPartitionedCall/sequential_1/bidirectional_1/forward_lstm_1/while/next_iteration/_66", "op": "NextIteration", "input": ["StatefulPartitionedCall/sequential_1/bidirectional_1/forward_lstm_1/while/StatefulPartitionedCall/sequential_1/bidirectional_1/forward_lstm_1/TensorArrayUnstack/TensorListFromTensor_switch/_50:1", "^Func/StatefulPartitionedCall/sequential_1/bidirectional_1/forward_lstm_1/while/body/_24/output_control_node/_232", "^Func/StatefulPartitionedCall/sequential_1/bidirectional_1/forward_lstm_1/while/body/_24/input_control_node/_211"], "attr": {"T": {"type": "DT_VARIANT"}}}, {"name": "StatefulPartitionedCall/sequential_1/bidirectional_1/forward_lstm_1/while/next_iteration/_61", "op": "NextIteration", "input": ["StatefulPartitionedCall/sequential_1/bidirectional_1/forward_lstm_1/while/StatefulPartitionedCall/sequential_1/bidirectional_1/forward_lstm_1/Max_switch/_45:1", "^Func/StatefulPartitionedCall/sequential_1/bidirectional_1/forward_lstm_1/while/body/_24/output_control_node/_232", "^StatefulPartitionedCall/sequential_1/bidirectional_1/forward_lstm_1/while/body/_24/sequential_1/bidirectional_1/forward_lstm_1/while/NoOp", "^Func/StatefulPartitionedCall/sequential_1/bidirectional_1/forward_lstm_1/while/body/_24/input_control_node/_211"], "attr": {"T": {"type": "DT_INT32"}}}, {"name": "StatefulPartitionedCall/sequential_1/bidirectional_1/forward_lstm_1/while/next_iteration/_60", "op": "NextIteration", "input": ["StatefulPartitionedCall/sequential_1/bidirectional_1/forward_lstm_1/while/body/_24/sequential_1/bidirectional_1/forward_lstm_1/while/add_1", "^Func/StatefulPartitionedCall/sequential_1/bidirectional_1/forward_lstm_1/while/body/_24/output_control_node/_232", "^StatefulPartitionedCall/sequential_1/bidirectional_1/forward_lstm_1/while/body/_24/sequential_1/bidirectional_1/forward_lstm_1/while/NoOp"], "attr": {"T": {"type": "DT_INT32"}}}, {"name": "StatefulPartitionedCall/sequential_1/bidirectional_1/forward_lstm_1/while/next_iteration/_62", "op": "NextIteration", "input": ["StatefulPartitionedCall/sequential_1/bidirectional_1/forward_lstm_1/while/body/_24/sequential_1/bidirectional_1/forward_lstm_1/while/add", "^Func/StatefulPartitionedCall/sequential_1/bidirectional_1/forward_lstm_1/while/body/_24/output_control_node/_232", "^StatefulPartitionedCall/sequential_1/bidirectional_1/forward_lstm_1/while/body/_24/sequential_1/bidirectional_1/forward_lstm_1/while/NoOp"], "attr": {"T": {"type": "DT_INT32"}}}, {"name": "StatefulPartitionedCall/sequential_1/bidirectional_1/backward_lstm_1/while/body/_68/sequential_1/bidirectional_1/backward_lstm_1/while/lstm_cell_1/Add", "op": "_FusedMatMul", "input": ["StatefulPartitionedCall/sequential_1/bidirectional_1/backward_lstm_1/while/body/_68/sequential_1/bidirectional_1/backward_lstm_1/while/TensorArrayV2Read/TensorListGetItem", "StatefulPartitionedCall/sequential_1/bidirectional_1/backward_lstm_1/while/body/_68/sequential_1/bidirectional_1/backward_lstm_1/while/lstm_cell_1/Cast/ReadVariableOp", "StatefulPartitionedCall/sequential_1/bidirectional_1/backward_lstm_1/while/body/_68/sequential_1/bidirectional_1/backward_lstm_1/while/lstm_cell_1/MatMul_1"], "device": "/device:CPU:0", "attr": {"transpose_a": {"b": false}, "transpose_b": {"b": false}, "fused_ops": {"list": {"s": ["Qmlhc0FkZA=="]}}, "leakyrelu_alpha": {"f": 0.2}, "num_args": {"i": "1"}, "epsilon": {"f": 0.0}, "T": {"type": "DT_FLOAT"}}}, {"name": "StatefulPartitionedCall/sequential_1/bidirectional_1/backward_lstm_1/while/next_iteration/_110", "op": "NextIteration", "input": ["StatefulPartitionedCall/sequential_1/bidirectional_1/backward_lstm_1/while/StatefulPartitionedCall/sequential_1/bidirectional_1/backward_lstm_1/TensorArrayUnstack/TensorListFromTensor_switch/_94:1", "^Func/StatefulPartitionedCall/sequential_1/bidirectional_1/backward_lstm_1/while/body/_68/output_control_node/_266", "^Func/StatefulPartitionedCall/sequential_1/bidirectional_1/backward_lstm_1/while/body/_68/input_control_node/_245"], "attr": {"T": {"type": "DT_VARIANT"}}}, {"name": "StatefulPartitionedCall/sequential_1/bidirectional_1/backward_lstm_1/while/next_iteration/_105", "op": "NextIteration", "input": ["StatefulPartitionedCall/sequential_1/bidirectional_1/backward_lstm_1/while/StatefulPartitionedCall/sequential_1/bidirectional_1/backward_lstm_1/Max_switch/_89:1", "^Func/StatefulPartitionedCall/sequential_1/bidirectional_1/backward_lstm_1/while/body/_68/output_control_node/_266", "^StatefulPartitionedCall/sequential_1/bidirectional_1/backward_lstm_1/while/body/_68/sequential_1/bidirectional_1/backward_lstm_1/while/NoOp", "^Func/StatefulPartitionedCall/sequential_1/bidirectional_1/backward_lstm_1/while/body/_68/input_control_node/_245"], "attr": {"T": {"type": "DT_INT32"}}}, {"name": "StatefulPartitionedCall/sequential_1/bidirectional_1/backward_lstm_1/while/next_iteration/_104", "op": "NextIteration", "input": ["StatefulPartitionedCall/sequential_1/bidirectional_1/backward_lstm_1/while/body/_68/sequential_1/bidirectional_1/backward_lstm_1/while/add_1", "^Func/StatefulPartitionedCall/sequential_1/bidirectional_1/backward_lstm_1/while/body/_68/output_control_node/_266", "^StatefulPartitionedCall/sequential_1/bidirectional_1/backward_lstm_1/while/body/_68/sequential_1/bidirectional_1/backward_lstm_1/while/NoOp"], "attr": {"T": {"type": "DT_INT32"}}}, {"name": "StatefulPartitionedCall/sequential_1/bidirectional_1/backward_lstm_1/while/next_iteration/_106", "op": "NextIteration", "input": ["StatefulPartitionedCall/sequential_1/bidirectional_1/backward_lstm_1/while/body/_68/sequential_1/bidirectional_1/backward_lstm_1/while/add", "^Func/StatefulPartitionedCall/sequential_1/bidirectional_1/backward_lstm_1/while/body/_68/output_control_node/_266", "^StatefulPartitionedCall/sequential_1/bidirectional_1/backward_lstm_1/while/body/_68/sequential_1/bidirectional_1/backward_lstm_1/while/NoOp"], "attr": {"T": {"type": "DT_INT32"}}}, {"name": "StatefulPartitionedCall/sequential_1/bidirectional_1/concat", "op": "ConcatV2", "input": ["StatefulPartitionedCall/sequential_1/bidirectional_1/forward_lstm_1/transpose_1", "StatefulPartitionedCall/sequential_1/bidirectional_1/ReverseV2", "StatefulPartitionedCall/sequential_1/bidirectional_1/concat/axis"], "attr": {"N": {"i": "2"}, "T": {"type": "DT_FLOAT"}, "Tidx": {"type": "DT_INT32"}}}, {"name": "StatefulPartitionedCall/sequential_1/bidirectional_1/forward_lstm_1/while/body/_24/sequential_1/bidirectional_1/forward_lstm_1/while/lstm_cell_1/BiasAdd", "op": "BiasAdd", "input": ["StatefulPartitionedCall/sequential_1/bidirectional_1/forward_lstm_1/while/body/_24/sequential_1/bidirectional_1/forward_lstm_1/while/lstm_cell_1/Add", "StatefulPartitionedCall/sequential_1/bidirectional_1/forward_lstm_1/while/body/_24/sequential_1/bidirectional_1/forward_lstm_1/while/lstm_cell_1/BiasAdd/ReadVariableOp"], "attr": {"data_format": {"s": "TkhXQw=="}, "T": {"type": "DT_FLOAT"}}}, {"name": "StatefulPartitionedCall/sequential_1/bidirectional_1/backward_lstm_1/while/body/_68/sequential_1/bidirectional_1/backward_lstm_1/while/lstm_cell_1/BiasAdd", "op": "BiasAdd", "input": ["StatefulPartitionedCall/sequential_1/bidirectional_1/backward_lstm_1/while/body/_68/sequential_1/bidirectional_1/backward_lstm_1/while/lstm_cell_1/Add", "StatefulPartitionedCall/sequential_1/bidirectional_1/backward_lstm_1/while/body/_68/sequential_1/bidirectional_1/backward_lstm_1/while/lstm_cell_1/BiasAdd/ReadVariableOp"], "attr": {"data_format": {"s": "TkhXQw=="}, "T": {"type": "DT_FLOAT"}}}, {"name": "StatefulPartitionedCall/sequential_1/bidirectional_1_2/backward_lstm_1_1/transpose", "op": "Transpose", "input": ["StatefulPartitionedCall/sequential_1/bidirectional_1/concat", "StatefulPartitionedCall/sequential_1/bidirectional_1_2/backward_lstm_1_1/transpose/perm"], "attr": {"Tperm": {"type": "DT_INT32"}, "T": {"type": "DT_FLOAT"}}}, {"name": "StatefulPartitionedCall/sequential_1/bidirectional_1_2/backward_lstm_1_1/Shape", "op": "Shape", "input": ["StatefulPartitionedCall/sequential_1/bidirectional_1/concat"], "attr": {"T": {"type": "DT_FLOAT"}, "out_type": {"type": "DT_INT32"}}, "experimentalType": {"typeId": "TFT_PRODUCT", "args": [{"typeId": "TFT_SHAPE_TENSOR", "args": [{"typeId": "TFT_INT32"}]}]}}, {"name": "StatefulPartitionedCall/sequential_1/bidirectional_1_2/forward_lstm_1_1/transpose", "op": "Transpose", "input": ["StatefulPartitionedCall/sequential_1/bidirectional_1/concat", "StatefulPartitionedCall/sequential_1/bidirectional_1_2/forward_lstm_1_1/transpose/perm"], "attr": {"Tperm": {"type": "DT_INT32"}, "T": {"type": "DT_FLOAT"}}}, {"name": "StatefulPartitionedCall/sequential_1/bidirectional_1_2/forward_lstm_1_1/Shape", "op": "Shape", "input": ["StatefulPartitionedCall/sequential_1/bidirectional_1/concat"], "attr": {"T": {"type": "DT_FLOAT"}, "out_type": {"type": "DT_INT32"}}, "experimentalType": {"typeId": "TFT_PRODUCT", "args": [{"typeId": "TFT_SHAPE_TENSOR", "args": [{"typeId": "TFT_INT32"}]}]}}, {"name": "StatefulPartitionedCall/sequential_1/bidirectional_1/forward_lstm_1/while/body/_24/sequential_1/bidirectional_1/forward_lstm_1/while/lstm_cell_1/split", "op": "Split", "input": ["StatefulPartitionedCall/sequential_1/bidirectional_1/forward_lstm_1/while/body/_24/sequential_1/bidirectional_1/forward_lstm_1/while/lstm_cell_1/split/split_dim", "StatefulPartitionedCall/sequential_1/bidirectional_1/forward_lstm_1/while/body/_24/sequential_1/bidirectional_1/forward_lstm_1/while/lstm_cell_1/BiasAdd"], "attr": {"num_split": {"i": "4"}, "T": {"type": "DT_FLOAT"}}}, {"name": "StatefulPartitionedCall/sequential_1/bidirectional_1/backward_lstm_1/while/body/_68/sequential_1/bidirectional_1/backward_lstm_1/while/lstm_cell_1/split", "op": "Split", "input": ["StatefulPartitionedCall/sequential_1/bidirectional_1/backward_lstm_1/while/body/_68/sequential_1/bidirectional_1/backward_lstm_1/while/lstm_cell_1/split/split_dim", "StatefulPartitionedCall/sequential_1/bidirectional_1/backward_lstm_1/while/body/_68/sequential_1/bidirectional_1/backward_lstm_1/while/lstm_cell_1/BiasAdd"], "attr": {"num_split": {"i": "4"}, "T": {"type": "DT_FLOAT"}}}, {"name": "StatefulPartitionedCall/sequential_1/bidirectional_1_2/backward_lstm_1_1/ReverseV2", "op": "ReverseV2", "input": ["StatefulPartitionedCall/sequential_1/bidirectional_1_2/backward_lstm_1_1/transpose", "StatefulPartitionedCall/sequential_1/bidirectional_1_2/backward_lstm_1_1/ReverseV2/axis"], "attr": {"T": {"type": "DT_FLOAT"}, "Tidx": {"type": "DT_INT32"}}}, {"name": "StatefulPartitionedCall/sequential_1/bidirectional_1_2/backward_lstm_1_1/strided_slice", "op": "StridedSlice", "input": ["StatefulPartitionedCall/sequential_1/bidirectional_1_2/backward_lstm_1_1/Shape", "StatefulPartitionedCall/sequential_1/bidirectional_1_2/backward_lstm_1_1/strided_slice/stack", "StatefulPartitionedCall/sequential_1/bidirectional_1_2/backward_lstm_1_1/strided_slice/stack_1", "StatefulPartitionedCall/sequential_1/bidirectional_1_2/backward_lstm_1_1/strided_slice/stack_2"], "attr": {"shrink_axis_mask": {"i": "1"}, "new_axis_mask": {"i": "0"}, "Index": {"type": "DT_INT32"}, "begin_mask": {"i": "0"}, "T": {"type": "DT_INT32"}, "end_mask": {"i": "0"}, "ellipsis_mask": {"i": "0"}}}, {"name": "StatefulPartitionedCall/sequential_1/bidirectional_1_2/forward_lstm_1_1/TensorArrayUnstack/TensorListFromTensor", "op": "TensorListFromTensor", "input": ["StatefulPartitionedCall/sequential_1/bidirectional_1_2/forward_lstm_1_1/transpose", "StatefulPartitionedCall/sequential_1/bidirectional_1_2/forward_lstm_1_1/TensorArrayUnstack/TensorListFromTensor/element_shape"], "attr": {"shape_type": {"type": "DT_INT32"}, "_has_manual_control_dependencies": {"b": true}, "element_dtype": {"type": "DT_FLOAT"}}, "experimentalType": {"typeId": "TFT_PRODUCT", "args": [{"typeId": "TFT_ARRAY", "args": [{"typeId": "TFT_TENSOR", "args": [{"typeId": "TFT_FLOAT"}]}]}]}}, {"name": "StatefulPartitionedCall/sequential_1/bidirectional_1_2/forward_lstm_1_1/strided_slice", "op": "StridedSlice", "input": ["StatefulPartitionedCall/sequential_1/bidirectional_1_2/forward_lstm_1_1/Shape", "StatefulPartitionedCall/sequential_1/bidirectional_1_2/forward_lstm_1_1/strided_slice/stack", "StatefulPartitionedCall/sequential_1/bidirectional_1_2/forward_lstm_1_1/strided_slice/stack_1", "StatefulPartitionedCall/sequential_1/bidirectional_1_2/forward_lstm_1_1/strided_slice/stack_2"], "attr": {"shrink_axis_mask": {"i": "1"}, "new_axis_mask": {"i": "0"}, "Index": {"type": "DT_INT32"}, "begin_mask": {"i": "0"}, "end_mask": {"i": "0"}, "T": {"type": "DT_INT32"}, "ellipsis_mask": {"i": "0"}}}, {"name": "StatefulPartitionedCall/sequential_1/bidirectional_1/forward_lstm_1/while/body/_24/sequential_1/bidirectional_1/forward_lstm_1/while/lstm_cell_1/Sigmoid", "op": "Sigmoid", "input": ["StatefulPartitionedCall/sequential_1/bidirectional_1/forward_lstm_1/while/body/_24/sequential_1/bidirectional_1/forward_lstm_1/while/lstm_cell_1/split"], "attr": {"T": {"type": "DT_FLOAT"}}}, {"name": "StatefulPartitionedCall/sequential_1/bidirectional_1/forward_lstm_1/while/body/_24/sequential_1/bidirectional_1/forward_lstm_1/while/lstm_cell_1/Sigmoid_1", "op": "Sigmoid", "input": ["StatefulPartitionedCall/sequential_1/bidirectional_1/forward_lstm_1/while/body/_24/sequential_1/bidirectional_1/forward_lstm_1/while/lstm_cell_1/split:1"], "attr": {"T": {"type": "DT_FLOAT"}}}, {"name": "StatefulPartitionedCall/sequential_1/bidirectional_1/forward_lstm_1/while/body/_24/sequential_1/bidirectional_1/forward_lstm_1/while/lstm_cell_1/Tanh", "op": "Tanh", "input": ["StatefulPartitionedCall/sequential_1/bidirectional_1/forward_lstm_1/while/body/_24/sequential_1/bidirectional_1/forward_lstm_1/while/lstm_cell_1/split:2"], "attr": {"T": {"type": "DT_FLOAT"}}}, {"name": "StatefulPartitionedCall/sequential_1/bidirectional_1/forward_lstm_1/while/body/_24/sequential_1/bidirectional_1/forward_lstm_1/while/lstm_cell_1/Sigmoid_2", "op": "Sigmoid", "input": ["StatefulPartitionedCall/sequential_1/bidirectional_1/forward_lstm_1/while/body/_24/sequential_1/bidirectional_1/forward_lstm_1/while/lstm_cell_1/split:3"], "attr": {"T": {"type": "DT_FLOAT"}}}, {"name": "StatefulPartitionedCall/sequential_1/bidirectional_1/backward_lstm_1/while/body/_68/sequential_1/bidirectional_1/backward_lstm_1/while/lstm_cell_1/Sigmoid", "op": "Sigmoid", "input": ["StatefulPartitionedCall/sequential_1/bidirectional_1/backward_lstm_1/while/body/_68/sequential_1/bidirectional_1/backward_lstm_1/while/lstm_cell_1/split"], "attr": {"T": {"type": "DT_FLOAT"}}}, {"name": "StatefulPartitionedCall/sequential_1/bidirectional_1/backward_lstm_1/while/body/_68/sequential_1/bidirectional_1/backward_lstm_1/while/lstm_cell_1/Sigmoid_1", "op": "Sigmoid", "input": ["StatefulPartitionedCall/sequential_1/bidirectional_1/backward_lstm_1/while/body/_68/sequential_1/bidirectional_1/backward_lstm_1/while/lstm_cell_1/split:1"], "attr": {"T": {"type": "DT_FLOAT"}}}, {"name": "StatefulPartitionedCall/sequential_1/bidirectional_1/backward_lstm_1/while/body/_68/sequential_1/bidirectional_1/backward_lstm_1/while/lstm_cell_1/Tanh", "op": "Tanh", "input": ["StatefulPartitionedCall/sequential_1/bidirectional_1/backward_lstm_1/while/body/_68/sequential_1/bidirectional_1/backward_lstm_1/while/lstm_cell_1/split:2"], "attr": {"T": {"type": "DT_FLOAT"}}}, {"name": "StatefulPartitionedCall/sequential_1/bidirectional_1/backward_lstm_1/while/body/_68/sequential_1/bidirectional_1/backward_lstm_1/while/lstm_cell_1/Sigmoid_2", "op": "Sigmoid", "input": ["StatefulPartitionedCall/sequential_1/bidirectional_1/backward_lstm_1/while/body/_68/sequential_1/bidirectional_1/backward_lstm_1/while/lstm_cell_1/split:3"], "attr": {"T": {"type": "DT_FLOAT"}}}, {"name": "StatefulPartitionedCall/sequential_1/bidirectional_1_2/backward_lstm_1_1/TensorArrayUnstack/TensorListFromTensor", "op": "TensorListFromTensor", "input": ["StatefulPartitionedCall/sequential_1/bidirectional_1_2/backward_lstm_1_1/ReverseV2", "StatefulPartitionedCall/sequential_1/bidirectional_1_2/backward_lstm_1_1/TensorArrayUnstack/TensorListFromTensor/element_shape"], "attr": {"shape_type": {"type": "DT_INT32"}, "_has_manual_control_dependencies": {"b": true}, "element_dtype": {"type": "DT_FLOAT"}}, "experimentalType": {"typeId": "TFT_PRODUCT", "args": [{"typeId": "TFT_ARRAY", "args": [{"typeId": "TFT_TENSOR", "args": [{"typeId": "TFT_FLOAT"}]}]}]}}, {"name": "StatefulPartitionedCall/sequential_1/bidirectional_1_2/backward_lstm_1_1/zeros/packed", "op": "Pack", "input": ["StatefulPartitionedCall/sequential_1/bidirectional_1_2/backward_lstm_1_1/strided_slice", "StatefulPartitionedCall/sequential_1/bidirectional_1_2/backward_lstm_1_1/zeros/packed/1"], "attr": {"N": {"i": "2"}, "axis": {"i": "0"}, "T": {"type": "DT_INT32"}}}, {"name": "StatefulPartitionedCall/sequential_1/bidirectional_1_2/backward_lstm_1_1/zeros_1/packed", "op": "Pack", "input": ["StatefulPartitionedCall/sequential_1/bidirectional_1_2/backward_lstm_1_1/strided_slice", "StatefulPartitionedCall/sequential_1/bidirectional_1_2/backward_lstm_1_1/zeros_1/packed/1"], "attr": {"N": {"i": "2"}, "axis": {"i": "0"}, "T": {"type": "DT_INT32"}}}, {"name": "StatefulPartitionedCall/sequential_1/bidirectional_1_2/forward_lstm_1_1/zeros/packed", "op": "Pack", "input": ["StatefulPartitionedCall/sequential_1/bidirectional_1_2/forward_lstm_1_1/strided_slice", "StatefulPartitionedCall/sequential_1/bidirectional_1_2/forward_lstm_1_1/zeros/packed/1"], "attr": {"N": {"i": "2"}, "axis": {"i": "0"}, "T": {"type": "DT_INT32"}}}, {"name": "StatefulPartitionedCall/sequential_1/bidirectional_1_2/forward_lstm_1_1/zeros_1/packed", "op": "Pack", "input": ["StatefulPartitionedCall/sequential_1/bidirectional_1_2/forward_lstm_1_1/strided_slice", "StatefulPartitionedCall/sequential_1/bidirectional_1_2/forward_lstm_1_1/zeros_1/packed/1"], "attr": {"N": {"i": "2"}, "axis": {"i": "0"}, "T": {"type": "DT_INT32"}}}, {"name": "StatefulPartitionedCall/sequential_1/bidirectional_1/forward_lstm_1/while/body/_24/sequential_1/bidirectional_1/forward_lstm_1/while/lstm_cell_1/mul", "op": "Mul", "input": ["StatefulPartitionedCall/sequential_1/bidirectional_1/forward_lstm_1/while/body/_24/sequential_1/bidirectional_1/forward_lstm_1/while/lstm_cell_1/Sigmoid_1", "StatefulPartitionedCall/sequential_1/bidirectional_1/forward_lstm_1/while/StatefulPartitionedCall/sequential_1/bidirectional_1/forward_lstm_1/zeros_1_switch/_49:1"], "attr": {"T": {"type": "DT_FLOAT"}}}, {"name": "StatefulPartitionedCall/sequential_1/bidirectional_1/forward_lstm_1/while/body/_24/sequential_1/bidirectional_1/forward_lstm_1/while/lstm_cell_1/mul_1", "op": "Mul", "input": ["StatefulPartitionedCall/sequential_1/bidirectional_1/forward_lstm_1/while/body/_24/sequential_1/bidirectional_1/forward_lstm_1/while/lstm_cell_1/Sigmoid", "StatefulPartitionedCall/sequential_1/bidirectional_1/forward_lstm_1/while/body/_24/sequential_1/bidirectional_1/forward_lstm_1/while/lstm_cell_1/Tanh"], "attr": {"T": {"type": "DT_FLOAT"}}}, {"name": "StatefulPartitionedCall/sequential_1/bidirectional_1/backward_lstm_1/while/body/_68/sequential_1/bidirectional_1/backward_lstm_1/while/lstm_cell_1/mul", "op": "Mul", "input": ["StatefulPartitionedCall/sequential_1/bidirectional_1/backward_lstm_1/while/body/_68/sequential_1/bidirectional_1/backward_lstm_1/while/lstm_cell_1/Sigmoid_1", "StatefulPartitionedCall/sequential_1/bidirectional_1/backward_lstm_1/while/StatefulPartitionedCall/sequential_1/bidirectional_1/backward_lstm_1/zeros_1_switch/_93:1"], "attr": {"T": {"type": "DT_FLOAT"}}}, {"name": "StatefulPartitionedCall/sequential_1/bidirectional_1/backward_lstm_1/while/body/_68/sequential_1/bidirectional_1/backward_lstm_1/while/lstm_cell_1/mul_1", "op": "Mul", "input": ["StatefulPartitionedCall/sequential_1/bidirectional_1/backward_lstm_1/while/body/_68/sequential_1/bidirectional_1/backward_lstm_1/while/lstm_cell_1/Sigmoid", "StatefulPartitionedCall/sequential_1/bidirectional_1/backward_lstm_1/while/body/_68/sequential_1/bidirectional_1/backward_lstm_1/while/lstm_cell_1/Tanh"], "attr": {"T": {"type": "DT_FLOAT"}}}, {"name": "StatefulPartitionedCall/sequential_1/bidirectional_1_2/backward_lstm_1_1/zeros", "op": "Fill", "input": ["StatefulPartitionedCall/sequential_1/bidirectional_1_2/backward_lstm_1_1/zeros/packed", "StatefulPartitionedCall/sequential_1/bidirectional_1_2/backward_lstm_1_1/zeros/Const"], "attr": {"_has_manual_control_dependencies": {"b": true}, "T": {"type": "DT_FLOAT"}, "index_type": {"type": "DT_INT32"}}}, {"name": "StatefulPartitionedCall/sequential_1/bidirectional_1_2/backward_lstm_1_1/zeros_1", "op": "Fill", "input": ["StatefulPartitionedCall/sequential_1/bidirectional_1_2/backward_lstm_1_1/zeros_1/packed", "StatefulPartitionedCall/sequential_1/bidirectional_1_2/backward_lstm_1_1/zeros_1/Const"], "attr": {"_has_manual_control_dependencies": {"b": true}, "T": {"type": "DT_FLOAT"}, "index_type": {"type": "DT_INT32"}}}, {"name": "StatefulPartitionedCall/sequential_1/bidirectional_1_2/forward_lstm_1_1/zeros", "op": "Fill", "input": ["StatefulPartitionedCall/sequential_1/bidirectional_1_2/forward_lstm_1_1/zeros/packed", "StatefulPartitionedCall/sequential_1/bidirectional_1_2/forward_lstm_1_1/zeros/Const"], "attr": {"_has_manual_control_dependencies": {"b": true}, "T": {"type": "DT_FLOAT"}, "index_type": {"type": "DT_INT32"}}}, {"name": "StatefulPartitionedCall/sequential_1/bidirectional_1_2/forward_lstm_1_1/zeros_1", "op": "Fill", "input": ["StatefulPartitionedCall/sequential_1/bidirectional_1_2/forward_lstm_1_1/zeros_1/packed", "StatefulPartitionedCall/sequential_1/bidirectional_1_2/forward_lstm_1_1/zeros_1/Const"], "attr": {"_has_manual_control_dependencies": {"b": true}, "T": {"type": "DT_FLOAT"}, "index_type": {"type": "DT_INT32"}}}, {"name": "StatefulPartitionedCall/sequential_1/bidirectional_1/forward_lstm_1/while/body/_24/sequential_1/bidirectional_1/forward_lstm_1/while/lstm_cell_1/add_1", "op": "AddV2", "input": ["StatefulPartitionedCall/sequential_1/bidirectional_1/forward_lstm_1/while/body/_24/sequential_1/bidirectional_1/forward_lstm_1/while/lstm_cell_1/mul", "StatefulPartitionedCall/sequential_1/bidirectional_1/forward_lstm_1/while/body/_24/sequential_1/bidirectional_1/forward_lstm_1/while/lstm_cell_1/mul_1"], "attr": {"T": {"type": "DT_FLOAT"}}}, {"name": "StatefulPartitionedCall/sequential_1/bidirectional_1/backward_lstm_1/while/body/_68/sequential_1/bidirectional_1/backward_lstm_1/while/lstm_cell_1/add_1", "op": "AddV2", "input": ["StatefulPartitionedCall/sequential_1/bidirectional_1/backward_lstm_1/while/body/_68/sequential_1/bidirectional_1/backward_lstm_1/while/lstm_cell_1/mul", "StatefulPartitionedCall/sequential_1/bidirectional_1/backward_lstm_1/while/body/_68/sequential_1/bidirectional_1/backward_lstm_1/while/lstm_cell_1/mul_1"], "attr": {"T": {"type": "DT_FLOAT"}}}, {"name": "StatefulPartitionedCall/sequential_1/bidirectional_1_2/backward_lstm_1_1/while/LoopControlInputs/_167", "op": "NoOp", "input": ["^StatefulPartitionedCall/sequential_1/bidirectional_1_2/backward_lstm_1_1/TensorArrayUnstack/TensorListFromTensor", "^StatefulPartitionedCall/sequential_1/bidirectional_1_2/backward_lstm_1_1/TensorArrayV2_1", "^StatefulPartitionedCall/sequential_1/bidirectional_1_2/backward_lstm_1_1/zeros", "^StatefulPartitionedCall/sequential_1/bidirectional_1_2/backward_lstm_1_1/zeros_1"], "attr": {"_has_manual_control_dependencies": {"b": true}}}, {"name": "StatefulPartitionedCall/sequential_1/bidirectional_1_2/forward_lstm_1_1/while/LoopControlInputs/_123", "op": "NoOp", "input": ["^StatefulPartitionedCall/sequential_1/bidirectional_1_2/forward_lstm_1_1/TensorArrayUnstack/TensorListFromTensor", "^StatefulPartitionedCall/sequential_1/bidirectional_1_2/forward_lstm_1_1/TensorArrayV2_1", "^StatefulPartitionedCall/sequential_1/bidirectional_1_2/forward_lstm_1_1/zeros", "^StatefulPartitionedCall/sequential_1/bidirectional_1_2/forward_lstm_1_1/zeros_1"], "attr": {"_has_manual_control_dependencies": {"b": true}}}, {"name": "StatefulPartitionedCall/sequential_1/bidirectional_1/forward_lstm_1/while/body/_24/sequential_1/bidirectional_1/forward_lstm_1/while/lstm_cell_1/Tanh_1", "op": "Tanh", "input": ["StatefulPartitionedCall/sequential_1/bidirectional_1/forward_lstm_1/while/body/_24/sequential_1/bidirectional_1/forward_lstm_1/while/lstm_cell_1/add_1"], "attr": {"T": {"type": "DT_FLOAT"}}}, {"name": "StatefulPartitionedCall/sequential_1/bidirectional_1/forward_lstm_1/while/next_iteration/_65", "op": "NextIteration", "input": ["StatefulPartitionedCall/sequential_1/bidirectional_1/forward_lstm_1/while/body/_24/sequential_1/bidirectional_1/forward_lstm_1/while/lstm_cell_1/add_1", "^Func/StatefulPartitionedCall/sequential_1/bidirectional_1/forward_lstm_1/while/body/_24/output_control_node/_232", "^StatefulPartitionedCall/sequential_1/bidirectional_1/forward_lstm_1/while/body/_24/sequential_1/bidirectional_1/forward_lstm_1/while/NoOp"], "attr": {"T": {"type": "DT_FLOAT"}}}, {"name": "StatefulPartitionedCall/sequential_1/bidirectional_1/backward_lstm_1/while/body/_68/sequential_1/bidirectional_1/backward_lstm_1/while/lstm_cell_1/Tanh_1", "op": "Tanh", "input": ["StatefulPartitionedCall/sequential_1/bidirectional_1/backward_lstm_1/while/body/_68/sequential_1/bidirectional_1/backward_lstm_1/while/lstm_cell_1/add_1"], "attr": {"T": {"type": "DT_FLOAT"}}}, {"name": "StatefulPartitionedCall/sequential_1/bidirectional_1/backward_lstm_1/while/next_iteration/_109", "op": "NextIteration", "input": ["StatefulPartitionedCall/sequential_1/bidirectional_1/backward_lstm_1/while/body/_68/sequential_1/bidirectional_1/backward_lstm_1/while/lstm_cell_1/add_1", "^Func/StatefulPartitionedCall/sequential_1/bidirectional_1/backward_lstm_1/while/body/_68/output_control_node/_266", "^StatefulPartitionedCall/sequential_1/bidirectional_1/backward_lstm_1/while/body/_68/sequential_1/bidirectional_1/backward_lstm_1/while/NoOp"], "attr": {"T": {"type": "DT_FLOAT"}}}, {"name": "StatefulPartitionedCall/sequential_1/bidirectional_1_2/backward_lstm_1_1/while/enter/_163", "op": "Enter", "input": ["StatefulPartitionedCall/sequential_1/bidirectional_1_2/backward_lstm_1_1/TensorArrayUnstack/TensorListFromTensor", "^StatefulPartitionedCall/sequential_1/bidirectional_1_2/backward_lstm_1_1/while/LoopControlInputs/_167"], "attr": {"is_constant": {"b": false}, "frame_name": {"s": "U3RhdGVmdWxQYXJ0aXRpb25lZENhbGwvc2VxdWVudGlhbF8xL2JpZGlyZWN0aW9uYWxfMV8yL2JhY2t3YXJkX2xzdG1fMV8xL3doaWxl"}, "T": {"type": "DT_VARIANT"}, "parallel_iterations": {"i": "32"}}}, {"name": "StatefulPartitionedCall/sequential_1/bidirectional_1_2/backward_lstm_1_1/while/enter/_158", "op": "Enter", "input": ["StatefulPartitionedCall/sequential_1/bidirectional_1_2/backward_lstm_1_1/Max", "^StatefulPartitionedCall/sequential_1/bidirectional_1_2/backward_lstm_1_1/while/LoopControlInputs/_167"], "attr": {"is_constant": {"b": false}, "frame_name": {"s": "U3RhdGVmdWxQYXJ0aXRpb25lZENhbGwvc2VxdWVudGlhbF8xL2JpZGlyZWN0aW9uYWxfMV8yL2JhY2t3YXJkX2xzdG1fMV8xL3doaWxl"}, "T": {"type": "DT_INT32"}, "parallel_iterations": {"i": "32"}}}, {"name": "StatefulPartitionedCall/sequential_1/bidirectional_1_2/backward_lstm_1_1/while/enter/_160", "op": "Enter", "input": ["StatefulPartitionedCall/sequential_1/bidirectional_1_2/backward_lstm_1_1/TensorArrayV2_1", "^StatefulPartitionedCall/sequential_1/bidirectional_1_2/backward_lstm_1_1/while/LoopControlInputs/_167"], "attr": {"is_constant": {"b": false}, "frame_name": {"s": "U3RhdGVmdWxQYXJ0aXRpb25lZENhbGwvc2VxdWVudGlhbF8xL2JpZGlyZWN0aW9uYWxfMV8yL2JhY2t3YXJkX2xzdG1fMV8xL3doaWxl"}, "T": {"type": "DT_VARIANT"}, "parallel_iterations": {"i": "32"}}}, {"name": "StatefulPartitionedCall/sequential_1/bidirectional_1_2/backward_lstm_1_1/while/enter/_157", "op": "Enter", "input": ["StatefulPartitionedCall/sequential_1/bidirectional_1_2/backward_lstm_1_1/while/loop_counter", "^StatefulPartitionedCall/sequential_1/bidirectional_1_2/backward_lstm_1_1/while/LoopControlInputs/_167"], "attr": {"is_constant": {"b": false}, "frame_name": {"s": "U3RhdGVmdWxQYXJ0aXRpb25lZENhbGwvc2VxdWVudGlhbF8xL2JpZGlyZWN0aW9uYWxfMV8yL2JhY2t3YXJkX2xzdG1fMV8xL3doaWxl"}, "T": {"type": "DT_INT32"}, "parallel_iterations": {"i": "32"}}}, {"name": "StatefulPartitionedCall/sequential_1/bidirectional_1_2/backward_lstm_1_1/while/enter/_161", "op": "Enter", "input": ["StatefulPartitionedCall/sequential_1/bidirectional_1_2/backward_lstm_1_1/zeros", "^StatefulPartitionedCall/sequential_1/bidirectional_1_2/backward_lstm_1_1/while/LoopControlInputs/_167"], "attr": {"is_constant": {"b": false}, "frame_name": {"s": "U3RhdGVmdWxQYXJ0aXRpb25lZENhbGwvc2VxdWVudGlhbF8xL2JpZGlyZWN0aW9uYWxfMV8yL2JhY2t3YXJkX2xzdG1fMV8xL3doaWxl"}, "T": {"type": "DT_FLOAT"}, "parallel_iterations": {"i": "32"}}}, {"name": "StatefulPartitionedCall/sequential_1/bidirectional_1_2/backward_lstm_1_1/while/enter/_162", "op": "Enter", "input": ["StatefulPartitionedCall/sequential_1/bidirectional_1_2/backward_lstm_1_1/zeros_1", "^StatefulPartitionedCall/sequential_1/bidirectional_1_2/backward_lstm_1_1/while/LoopControlInputs/_167"], "attr": {"is_constant": {"b": false}, "frame_name": {"s": "U3RhdGVmdWxQYXJ0aXRpb25lZENhbGwvc2VxdWVudGlhbF8xL2JpZGlyZWN0aW9uYWxfMV8yL2JhY2t3YXJkX2xzdG1fMV8xL3doaWxl"}, "T": {"type": "DT_FLOAT"}, "parallel_iterations": {"i": "32"}}}, {"name": "StatefulPartitionedCall/sequential_1/bidirectional_1_2/backward_lstm_1_1/while/enter/_159", "op": "Enter", "input": ["StatefulPartitionedCall/sequential_1/bidirectional_1_2/backward_lstm_1_1/time", "^StatefulPartitionedCall/sequential_1/bidirectional_1_2/backward_lstm_1_1/while/LoopControlInputs/_167"], "attr": {"is_constant": {"b": false}, "frame_name": {"s": "U3RhdGVmdWxQYXJ0aXRpb25lZENhbGwvc2VxdWVudGlhbF8xL2JpZGlyZWN0aW9uYWxfMV8yL2JhY2t3YXJkX2xzdG1fMV8xL3doaWxl"}, "T": {"type": "DT_INT32"}, "parallel_iterations": {"i": "32"}}}, {"name": "StatefulPartitionedCall/sequential_1/bidirectional_1_2/backward_lstm_1_1/while/enter/_164", "op": "Enter", "input": ["Func/StatefulPartitionedCall/input/_10", "^StatefulPartitionedCall/sequential_1/bidirectional_1_2/backward_lstm_1_1/while/LoopControlInputs/_167"], "attr": {"is_constant": {"b": true}, "frame_name": {"s": "U3RhdGVmdWxQYXJ0aXRpb25lZENhbGwvc2VxdWVudGlhbF8xL2JpZGlyZWN0aW9uYWxfMV8yL2JhY2t3YXJkX2xzdG1fMV8xL3doaWxl"}, "T": {"type": "DT_FLOAT"}, "parallel_iterations": {"i": "32"}}}, {"name": "StatefulPartitionedCall/sequential_1/bidirectional_1_2/backward_lstm_1_1/while/enter/_165", "op": "Enter", "input": ["Func/StatefulPartitionedCall/input/_11", "^StatefulPartitionedCall/sequential_1/bidirectional_1_2/backward_lstm_1_1/while/LoopControlInputs/_167"], "attr": {"is_constant": {"b": true}, "frame_name": {"s": "U3RhdGVmdWxQYXJ0aXRpb25lZENhbGwvc2VxdWVudGlhbF8xL2JpZGlyZWN0aW9uYWxfMV8yL2JhY2t3YXJkX2xzdG1fMV8xL3doaWxl"}, "T": {"type": "DT_FLOAT"}, "parallel_iterations": {"i": "32"}}}, {"name": "StatefulPartitionedCall/sequential_1/bidirectional_1_2/backward_lstm_1_1/while/enter/_166", "op": "Enter", "input": ["Func/StatefulPartitionedCall/input/_12", "^StatefulPartitionedCall/sequential_1/bidirectional_1_2/backward_lstm_1_1/while/LoopControlInputs/_167"], "attr": {"is_constant": {"b": true}, "frame_name": {"s": "U3RhdGVmdWxQYXJ0aXRpb25lZENhbGwvc2VxdWVudGlhbF8xL2JpZGlyZWN0aW9uYWxfMV8yL2JhY2t3YXJkX2xzdG1fMV8xL3doaWxl"}, "T": {"type": "DT_FLOAT"}, "parallel_iterations": {"i": "32"}}}, {"name": "StatefulPartitionedCall/sequential_1/bidirectional_1_2/forward_lstm_1_1/while/enter/_116", "op": "Enter", "input": ["StatefulPartitionedCall/sequential_1/bidirectional_1_2/forward_lstm_1_1/TensorArrayV2_1", "^StatefulPartitionedCall/sequential_1/bidirectional_1_2/forward_lstm_1_1/while/LoopControlInputs/_123"], "attr": {"is_constant": {"b": false}, "frame_name": {"s": "U3RhdGVmdWxQYXJ0aXRpb25lZENhbGwvc2VxdWVudGlhbF8xL2JpZGlyZWN0aW9uYWxfMV8yL2ZvcndhcmRfbHN0bV8xXzEvd2hpbGU="}, "T": {"type": "DT_VARIANT"}, "parallel_iterations": {"i": "32"}}}, {"name": "StatefulPartitionedCall/sequential_1/bidirectional_1_2/forward_lstm_1_1/while/enter/_119", "op": "Enter", "input": ["StatefulPartitionedCall/sequential_1/bidirectional_1_2/forward_lstm_1_1/TensorArrayUnstack/TensorListFromTensor", "^StatefulPartitionedCall/sequential_1/bidirectional_1_2/forward_lstm_1_1/while/LoopControlInputs/_123"], "attr": {"is_constant": {"b": false}, "frame_name": {"s": "U3RhdGVmdWxQYXJ0aXRpb25lZENhbGwvc2VxdWVudGlhbF8xL2JpZGlyZWN0aW9uYWxfMV8yL2ZvcndhcmRfbHN0bV8xXzEvd2hpbGU="}, "T": {"type": "DT_VARIANT"}, "parallel_iterations": {"i": "32"}}}, {"name": "StatefulPartitionedCall/sequential_1/bidirectional_1_2/forward_lstm_1_1/while/enter/_114", "op": "Enter", "input": ["StatefulPartitionedCall/sequential_1/bidirectional_1_2/forward_lstm_1_1/Max", "^StatefulPartitionedCall/sequential_1/bidirectional_1_2/forward_lstm_1_1/while/LoopControlInputs/_123"], "attr": {"is_constant": {"b": false}, "frame_name": {"s": "U3RhdGVmdWxQYXJ0aXRpb25lZENhbGwvc2VxdWVudGlhbF8xL2JpZGlyZWN0aW9uYWxfMV8yL2ZvcndhcmRfbHN0bV8xXzEvd2hpbGU="}, "T": {"type": "DT_INT32"}, "parallel_iterations": {"i": "32"}}}, {"name": "StatefulPartitionedCall/sequential_1/bidirectional_1_2/forward_lstm_1_1/while/enter/_113", "op": "Enter", "input": ["StatefulPartitionedCall/sequential_1/bidirectional_1_2/forward_lstm_1_1/while/loop_counter", "^StatefulPartitionedCall/sequential_1/bidirectional_1_2/forward_lstm_1_1/while/LoopControlInputs/_123"], "attr": {"is_constant": {"b": false}, "frame_name": {"s": "U3RhdGVmdWxQYXJ0aXRpb25lZENhbGwvc2VxdWVudGlhbF8xL2JpZGlyZWN0aW9uYWxfMV8yL2ZvcndhcmRfbHN0bV8xXzEvd2hpbGU="}, "T": {"type": "DT_INT32"}, "parallel_iterations": {"i": "32"}}}, {"name": "StatefulPartitionedCall/sequential_1/bidirectional_1_2/forward_lstm_1_1/while/enter/_117", "op": "Enter", "input": ["StatefulPartitionedCall/sequential_1/bidirectional_1_2/forward_lstm_1_1/zeros", "^StatefulPartitionedCall/sequential_1/bidirectional_1_2/forward_lstm_1_1/while/LoopControlInputs/_123"], "attr": {"is_constant": {"b": false}, "frame_name": {"s": "U3RhdGVmdWxQYXJ0aXRpb25lZENhbGwvc2VxdWVudGlhbF8xL2JpZGlyZWN0aW9uYWxfMV8yL2ZvcndhcmRfbHN0bV8xXzEvd2hpbGU="}, "T": {"type": "DT_FLOAT"}, "parallel_iterations": {"i": "32"}}}, {"name": "StatefulPartitionedCall/sequential_1/bidirectional_1_2/forward_lstm_1_1/while/enter/_118", "op": "Enter", "input": ["StatefulPartitionedCall/sequential_1/bidirectional_1_2/forward_lstm_1_1/zeros_1", "^StatefulPartitionedCall/sequential_1/bidirectional_1_2/forward_lstm_1_1/while/LoopControlInputs/_123"], "attr": {"is_constant": {"b": false}, "frame_name": {"s": "U3RhdGVmdWxQYXJ0aXRpb25lZENhbGwvc2VxdWVudGlhbF8xL2JpZGlyZWN0aW9uYWxfMV8yL2ZvcndhcmRfbHN0bV8xXzEvd2hpbGU="}, "T": {"type": "DT_FLOAT"}, "parallel_iterations": {"i": "32"}}}, {"name": "StatefulPartitionedCall/sequential_1/bidirectional_1_2/forward_lstm_1_1/while/enter/_115", "op": "Enter", "input": ["StatefulPartitionedCall/sequential_1/bidirectional_1_2/forward_lstm_1_1/time", "^StatefulPartitionedCall/sequential_1/bidirectional_1_2/forward_lstm_1_1/while/LoopControlInputs/_123"], "attr": {"is_constant": {"b": false}, "frame_name": {"s": "U3RhdGVmdWxQYXJ0aXRpb25lZENhbGwvc2VxdWVudGlhbF8xL2JpZGlyZWN0aW9uYWxfMV8yL2ZvcndhcmRfbHN0bV8xXzEvd2hpbGU="}, "T": {"type": "DT_INT32"}, "parallel_iterations": {"i": "32"}}}, {"name": "StatefulPartitionedCall/sequential_1/bidirectional_1_2/forward_lstm_1_1/while/enter/_120", "op": "Enter", "input": ["Func/StatefulPartitionedCall/input/_7", "^StatefulPartitionedCall/sequential_1/bidirectional_1_2/forward_lstm_1_1/while/LoopControlInputs/_123"], "attr": {"is_constant": {"b": true}, "_has_manual_control_dependencies": {"b": true}, "T": {"type": "DT_FLOAT"}, "frame_name": {"s": "U3RhdGVmdWxQYXJ0aXRpb25lZENhbGwvc2VxdWVudGlhbF8xL2JpZGlyZWN0aW9uYWxfMV8yL2ZvcndhcmRfbHN0bV8xXzEvd2hpbGU="}, "parallel_iterations": {"i": "32"}}}, {"name": "StatefulPartitionedCall/sequential_1/bidirectional_1_2/forward_lstm_1_1/while/enter/_121", "op": "Enter", "input": ["Func/StatefulPartitionedCall/input/_8", "^StatefulPartitionedCall/sequential_1/bidirectional_1_2/forward_lstm_1_1/while/LoopControlInputs/_123"], "attr": {"is_constant": {"b": true}, "_has_manual_control_dependencies": {"b": true}, "T": {"type": "DT_FLOAT"}, "frame_name": {"s": "U3RhdGVmdWxQYXJ0aXRpb25lZENhbGwvc2VxdWVudGlhbF8xL2JpZGlyZWN0aW9uYWxfMV8yL2ZvcndhcmRfbHN0bV8xXzEvd2hpbGU="}, "parallel_iterations": {"i": "32"}}}, {"name": "StatefulPartitionedCall/sequential_1/bidirectional_1_2/forward_lstm_1_1/while/enter/_122", "op": "Enter", "input": ["Func/StatefulPartitionedCall/input/_9", "^StatefulPartitionedCall/sequential_1/bidirectional_1_2/forward_lstm_1_1/while/LoopControlInputs/_123"], "attr": {"is_constant": {"b": true}, "_has_manual_control_dependencies": {"b": true}, "T": {"type": "DT_FLOAT"}, "frame_name": {"s": "U3RhdGVmdWxQYXJ0aXRpb25lZENhbGwvc2VxdWVudGlhbF8xL2JpZGlyZWN0aW9uYWxfMV8yL2ZvcndhcmRfbHN0bV8xXzEvd2hpbGU="}, "parallel_iterations": {"i": "32"}}}, {"name": "StatefulPartitionedCall/sequential_1/bidirectional_1/forward_lstm_1/while/body/_24/sequential_1/bidirectional_1/forward_lstm_1/while/lstm_cell_1/mul_2", "op": "Mul", "input": ["StatefulPartitionedCall/sequential_1/bidirectional_1/forward_lstm_1/while/body/_24/sequential_1/bidirectional_1/forward_lstm_1/while/lstm_cell_1/Sigmoid_2", "StatefulPartitionedCall/sequential_1/bidirectional_1/forward_lstm_1/while/body/_24/sequential_1/bidirectional_1/forward_lstm_1/while/lstm_cell_1/Tanh_1"], "attr": {"T": {"type": "DT_FLOAT"}}}, {"name": "StatefulPartitionedCall/sequential_1/bidirectional_1/backward_lstm_1/while/body/_68/sequential_1/bidirectional_1/backward_lstm_1/while/lstm_cell_1/mul_2", "op": "Mul", "input": ["StatefulPartitionedCall/sequential_1/bidirectional_1/backward_lstm_1/while/body/_68/sequential_1/bidirectional_1/backward_lstm_1/while/lstm_cell_1/Sigmoid_2", "StatefulPartitionedCall/sequential_1/bidirectional_1/backward_lstm_1/while/body/_68/sequential_1/bidirectional_1/backward_lstm_1/while/lstm_cell_1/Tanh_1"], "attr": {"T": {"type": "DT_FLOAT"}}}, {"name": "StatefulPartitionedCall/sequential_1/bidirectional_1_2/backward_lstm_1_1/while/merge/_174", "op": "Merge", "input": ["StatefulPartitionedCall/sequential_1/bidirectional_1_2/backward_lstm_1_1/while/enter/_163", "StatefulPartitionedCall/sequential_1/bidirectional_1_2/backward_lstm_1_1/while/next_iteration/_198"], "attr": {"N": {"i": "2"}, "_has_manual_control_dependencies": {"b": true}, "T": {"type": "DT_VARIANT"}}}, {"name": "StatefulPartitionedCall/sequential_1/bidirectional_1_2/backward_lstm_1_1/while/merge/_169", "op": "Merge", "input": ["StatefulPartitionedCall/sequential_1/bidirectional_1_2/backward_lstm_1_1/while/enter/_158", "StatefulPartitionedCall/sequential_1/bidirectional_1_2/backward_lstm_1_1/while/next_iteration/_193"], "attr": {"N": {"i": "2"}, "_has_manual_control_dependencies": {"b": true}, "T": {"type": "DT_INT32"}}}, {"name": "StatefulPartitionedCall/sequential_1/bidirectional_1_2/backward_lstm_1_1/while/merge/_171", "op": "Merge", "input": ["StatefulPartitionedCall/sequential_1/bidirectional_1_2/backward_lstm_1_1/while/enter/_160", "StatefulPartitionedCall/sequential_1/bidirectional_1_2/backward_lstm_1_1/while/next_iteration/_195"], "attr": {"N": {"i": "2"}, "_has_manual_control_dependencies": {"b": true}, "T": {"type": "DT_VARIANT"}}}, {"name": "StatefulPartitionedCall/sequential_1/bidirectional_1_2/backward_lstm_1_1/while/merge/_168", "op": "Merge", "input": ["StatefulPartitionedCall/sequential_1/bidirectional_1_2/backward_lstm_1_1/while/enter/_157", "StatefulPartitionedCall/sequential_1/bidirectional_1_2/backward_lstm_1_1/while/next_iteration/_192"], "attr": {"N": {"i": "2"}, "T": {"type": "DT_INT32"}}}, {"name": "StatefulPartitionedCall/sequential_1/bidirectional_1_2/backward_lstm_1_1/while/merge/_172", "op": "Merge", "input": ["StatefulPartitionedCall/sequential_1/bidirectional_1_2/backward_lstm_1_1/while/enter/_161", "StatefulPartitionedCall/sequential_1/bidirectional_1_2/backward_lstm_1_1/while/next_iteration/_196"], "attr": {"N": {"i": "2"}, "_has_manual_control_dependencies": {"b": true}, "T": {"type": "DT_FLOAT"}}}, {"name": "StatefulPartitionedCall/sequential_1/bidirectional_1_2/backward_lstm_1_1/while/merge/_173", "op": "Merge", "input": ["StatefulPartitionedCall/sequential_1/bidirectional_1_2/backward_lstm_1_1/while/enter/_162", "StatefulPartitionedCall/sequential_1/bidirectional_1_2/backward_lstm_1_1/while/next_iteration/_197"], "attr": {"N": {"i": "2"}, "_has_manual_control_dependencies": {"b": true}, "T": {"type": "DT_FLOAT"}}}, {"name": "StatefulPartitionedCall/sequential_1/bidirectional_1_2/backward_lstm_1_1/while/merge/_170", "op": "Merge", "input": ["StatefulPartitionedCall/sequential_1/bidirectional_1_2/backward_lstm_1_1/while/enter/_159", "StatefulPartitionedCall/sequential_1/bidirectional_1_2/backward_lstm_1_1/while/next_iteration/_194"], "attr": {"N": {"i": "2"}, "_has_manual_control_dependencies": {"b": true}, "T": {"type": "DT_INT32"}}}, {"name": "StatefulPartitionedCall/sequential_1/bidirectional_1_2/forward_lstm_1_1/while/merge/_127", "op": "Merge", "input": ["StatefulPartitionedCall/sequential_1/bidirectional_1_2/forward_lstm_1_1/while/enter/_116", "StatefulPartitionedCall/sequential_1/bidirectional_1_2/forward_lstm_1_1/while/next_iteration/_151"], "attr": {"N": {"i": "2"}, "_has_manual_control_dependencies": {"b": true}, "T": {"type": "DT_VARIANT"}}}, {"name": "StatefulPartitionedCall/sequential_1/bidirectional_1_2/forward_lstm_1_1/while/merge/_130", "op": "Merge", "input": ["StatefulPartitionedCall/sequential_1/bidirectional_1_2/forward_lstm_1_1/while/enter/_119", "StatefulPartitionedCall/sequential_1/bidirectional_1_2/forward_lstm_1_1/while/next_iteration/_154"], "attr": {"N": {"i": "2"}, "_has_manual_control_dependencies": {"b": true}, "T": {"type": "DT_VARIANT"}}}, {"name": "StatefulPartitionedCall/sequential_1/bidirectional_1_2/forward_lstm_1_1/while/merge/_125", "op": "Merge", "input": ["StatefulPartitionedCall/sequential_1/bidirectional_1_2/forward_lstm_1_1/while/enter/_114", "StatefulPartitionedCall/sequential_1/bidirectional_1_2/forward_lstm_1_1/while/next_iteration/_149"], "attr": {"N": {"i": "2"}, "_has_manual_control_dependencies": {"b": true}, "T": {"type": "DT_INT32"}}}, {"name": "StatefulPartitionedCall/sequential_1/bidirectional_1_2/forward_lstm_1_1/while/merge/_124", "op": "Merge", "input": ["StatefulPartitionedCall/sequential_1/bidirectional_1_2/forward_lstm_1_1/while/enter/_113", "StatefulPartitionedCall/sequential_1/bidirectional_1_2/forward_lstm_1_1/while/next_iteration/_148"], "attr": {"N": {"i": "2"}, "_has_manual_control_dependencies": {"b": true}, "T": {"type": "DT_INT32"}}}, {"name": "StatefulPartitionedCall/sequential_1/bidirectional_1_2/forward_lstm_1_1/while/merge/_128", "op": "Merge", "input": ["StatefulPartitionedCall/sequential_1/bidirectional_1_2/forward_lstm_1_1/while/enter/_117", "StatefulPartitionedCall/sequential_1/bidirectional_1_2/forward_lstm_1_1/while/next_iteration/_152"], "attr": {"N": {"i": "2"}, "_has_manual_control_dependencies": {"b": true}, "T": {"type": "DT_FLOAT"}}}, {"name": "StatefulPartitionedCall/sequential_1/bidirectional_1_2/forward_lstm_1_1/while/merge/_129", "op": "Merge", "input": ["StatefulPartitionedCall/sequential_1/bidirectional_1_2/forward_lstm_1_1/while/enter/_118", "StatefulPartitionedCall/sequential_1/bidirectional_1_2/forward_lstm_1_1/while/next_iteration/_153"], "attr": {"N": {"i": "2"}, "_has_manual_control_dependencies": {"b": true}, "T": {"type": "DT_FLOAT"}}}, {"name": "StatefulPartitionedCall/sequential_1/bidirectional_1_2/forward_lstm_1_1/while/merge/_126", "op": "Merge", "input": ["StatefulPartitionedCall/sequential_1/bidirectional_1_2/forward_lstm_1_1/while/enter/_115", "StatefulPartitionedCall/sequential_1/bidirectional_1_2/forward_lstm_1_1/while/next_iteration/_150"], "attr": {"N": {"i": "2"}, "_has_manual_control_dependencies": {"b": true}, "T": {"type": "DT_INT32"}}}, {"name": "StatefulPartitionedCall/sequential_1/bidirectional_1/forward_lstm_1/while/body/_24/sequential_1/bidirectional_1/forward_lstm_1/while/TensorArrayV2Write/TensorListSetItem", "op": "TensorListSetItem", "input": ["StatefulPartitionedCall/sequential_1/bidirectional_1/forward_lstm_1/while/StatefulPartitionedCall/sequential_1/bidirectional_1/forward_lstm_1/TensorArrayV2_1_switch/_47:1", "Func/StatefulPartitionedCall/sequential_1/bidirectional_1/forward_lstm_1/while/body/_24/input/_214", "StatefulPartitionedCall/sequential_1/bidirectional_1/forward_lstm_1/while/body/_24/sequential_1/bidirectional_1/forward_lstm_1/while/lstm_cell_1/mul_2"], "attr": {"element_dtype": {"type": "DT_FLOAT"}, "resize_if_index_out_of_bounds": {"b": false}}, "experimentalType": {"typeId": "TFT_PRODUCT", "args": [{"typeId": "TFT_ARRAY", "args": [{"typeId": "TFT_TENSOR", "args": [{"typeId": "TFT_FLOAT"}]}]}]}}, {"name": "StatefulPartitionedCall/sequential_1/bidirectional_1/forward_lstm_1/while/next_iteration/_64", "op": "NextIteration", "input": ["StatefulPartitionedCall/sequential_1/bidirectional_1/forward_lstm_1/while/body/_24/sequential_1/bidirectional_1/forward_lstm_1/while/lstm_cell_1/mul_2", "^Func/StatefulPartitionedCall/sequential_1/bidirectional_1/forward_lstm_1/while/body/_24/output_control_node/_232", "^StatefulPartitionedCall/sequential_1/bidirectional_1/forward_lstm_1/while/body/_24/sequential_1/bidirectional_1/forward_lstm_1/while/NoOp"], "attr": {"T": {"type": "DT_FLOAT"}}}, {"name": "StatefulPartitionedCall/sequential_1/bidirectional_1/backward_lstm_1/while/body/_68/sequential_1/bidirectional_1/backward_lstm_1/while/TensorArrayV2Write/TensorListSetItem", "op": "TensorListSetItem", "input": ["StatefulPartitionedCall/sequential_1/bidirectional_1/backward_lstm_1/while/StatefulPartitionedCall/sequential_1/bidirectional_1/backward_lstm_1/TensorArrayV2_1_switch/_91:1", "Func/StatefulPartitionedCall/sequential_1/bidirectional_1/backward_lstm_1/while/body/_68/input/_248", "StatefulPartitionedCall/sequential_1/bidirectional_1/backward_lstm_1/while/body/_68/sequential_1/bidirectional_1/backward_lstm_1/while/lstm_cell_1/mul_2"], "attr": {"element_dtype": {"type": "DT_FLOAT"}, "resize_if_index_out_of_bounds": {"b": false}}, "experimentalType": {"typeId": "TFT_PRODUCT", "args": [{"typeId": "TFT_ARRAY", "args": [{"typeId": "TFT_TENSOR", "args": [{"typeId": "TFT_FLOAT"}]}]}]}}, {"name": "StatefulPartitionedCall/sequential_1/bidirectional_1/backward_lstm_1/while/next_iteration/_108", "op": "NextIteration", "input": ["StatefulPartitionedCall/sequential_1/bidirectional_1/backward_lstm_1/while/body/_68/sequential_1/bidirectional_1/backward_lstm_1/while/lstm_cell_1/mul_2", "^Func/StatefulPartitionedCall/sequential_1/bidirectional_1/backward_lstm_1/while/body/_68/output_control_node/_266", "^StatefulPartitionedCall/sequential_1/bidirectional_1/backward_lstm_1/while/body/_68/sequential_1/bidirectional_1/backward_lstm_1/while/NoOp"], "attr": {"T": {"type": "DT_FLOAT"}}}, {"name": "Func/StatefulPartitionedCall/sequential_1/bidirectional_1_2/backward_lstm_1_1/while/cond/_155/input_control_node/_301", "op": "NoOp", "input": ["^StatefulPartitionedCall/sequential_1/bidirectional_1_2/backward_lstm_1_1/while/enter/_164", "^StatefulPartitionedCall/sequential_1/bidirectional_1_2/backward_lstm_1_1/while/enter/_165", "^StatefulPartitionedCall/sequential_1/bidirectional_1_2/backward_lstm_1_1/while/enter/_166", "^StatefulPartitionedCall/sequential_1/bidirectional_1_2/backward_lstm_1_1/while/merge/_168", "^StatefulPartitionedCall/sequential_1/bidirectional_1_2/backward_lstm_1_1/while/merge/_169", "^StatefulPartitionedCall/sequential_1/bidirectional_1_2/backward_lstm_1_1/while/merge/_170", "^StatefulPartitionedCall/sequential_1/bidirectional_1_2/backward_lstm_1_1/while/merge/_171", "^StatefulPartitionedCall/sequential_1/bidirectional_1_2/backward_lstm_1_1/while/merge/_172", "^StatefulPartitionedCall/sequential_1/bidirectional_1_2/backward_lstm_1_1/while/merge/_173", "^StatefulPartitionedCall/sequential_1/bidirectional_1_2/backward_lstm_1_1/while/merge/_174"], "attr": {"_has_manual_control_dependencies": {"b": true}}}, {"name": "Func/StatefulPartitionedCall/sequential_1/bidirectional_1_2/forward_lstm_1_1/while/cond/_111/input_control_node/_267", "op": "NoOp", "input": ["^StatefulPartitionedCall/sequential_1/bidirectional_1_2/forward_lstm_1_1/while/enter/_120", "^StatefulPartitionedCall/sequential_1/bidirectional_1_2/forward_lstm_1_1/while/enter/_121", "^StatefulPartitionedCall/sequential_1/bidirectional_1_2/forward_lstm_1_1/while/enter/_122", "^StatefulPartitionedCall/sequential_1/bidirectional_1_2/forward_lstm_1_1/while/merge/_124", "^StatefulPartitionedCall/sequential_1/bidirectional_1_2/forward_lstm_1_1/while/merge/_125", "^StatefulPartitionedCall/sequential_1/bidirectional_1_2/forward_lstm_1_1/while/merge/_126", "^StatefulPartitionedCall/sequential_1/bidirectional_1_2/forward_lstm_1_1/while/merge/_127", "^StatefulPartitionedCall/sequential_1/bidirectional_1_2/forward_lstm_1_1/while/merge/_128", "^StatefulPartitionedCall/sequential_1/bidirectional_1_2/forward_lstm_1_1/while/merge/_129", "^StatefulPartitionedCall/sequential_1/bidirectional_1_2/forward_lstm_1_1/while/merge/_130"], "attr": {"_has_manual_control_dependencies": {"b": true}}}, {"name": "StatefulPartitionedCall/sequential_1/bidirectional_1/forward_lstm_1/while/next_iteration/_63", "op": "NextIteration", "input": ["StatefulPartitionedCall/sequential_1/bidirectional_1/forward_lstm_1/while/body/_24/sequential_1/bidirectional_1/forward_lstm_1/while/TensorArrayV2Write/TensorListSetItem", "^Func/StatefulPartitionedCall/sequential_1/bidirectional_1/forward_lstm_1/while/body/_24/output_control_node/_232", "^StatefulPartitionedCall/sequential_1/bidirectional_1/forward_lstm_1/while/body/_24/sequential_1/bidirectional_1/forward_lstm_1/while/NoOp"], "attr": {"T": {"type": "DT_VARIANT"}}}, {"name": "StatefulPartitionedCall/sequential_1/bidirectional_1/backward_lstm_1/while/next_iteration/_107", "op": "NextIteration", "input": ["StatefulPartitionedCall/sequential_1/bidirectional_1/backward_lstm_1/while/body/_68/sequential_1/bidirectional_1/backward_lstm_1/while/TensorArrayV2Write/TensorListSetItem", "^Func/StatefulPartitionedCall/sequential_1/bidirectional_1/backward_lstm_1/while/body/_68/output_control_node/_266", "^StatefulPartitionedCall/sequential_1/bidirectional_1/backward_lstm_1/while/body/_68/sequential_1/bidirectional_1/backward_lstm_1/while/NoOp"], "attr": {"T": {"type": "DT_VARIANT"}}}, {"name": "StatefulPartitionedCall/sequential_1/bidirectional_1_2/backward_lstm_1_1/while/cond/_155/sequential_1/bidirectional_1_2/backward_lstm_1_1/while/Less_1", "op": "Less", "input": ["StatefulPartitionedCall/sequential_1/bidirectional_1_2/backward_lstm_1_1/while/merge/_168", "StatefulPartitionedCall/sequential_1/bidirectional_1_2/backward_lstm_1_1/while/merge/_169", "^Func/StatefulPartitionedCall/sequential_1/bidirectional_1_2/backward_lstm_1_1/while/cond/_155/input_control_node/_301"], "attr": {"T": {"type": "DT_INT32"}}}, {"name": "StatefulPartitionedCall/sequential_1/bidirectional_1_2/backward_lstm_1_1/while/cond/_155/sequential_1/bidirectional_1_2/backward_lstm_1_1/while/Less/y", "op": "Const", "input": ["^Func/StatefulPartitionedCall/sequential_1/bidirectional_1_2/backward_lstm_1_1/while/cond/_155/input_control_node/_301"], "attr": {"value": {"tensor": {"dtype": "DT_INT32", "tensorShape": {}}}, "dtype": {"type": "DT_INT32"}}}, {"name": "StatefulPartitionedCall/sequential_1/bidirectional_1_2/forward_lstm_1_1/while/cond/_111/sequential_1/bidirectional_1_2/forward_lstm_1_1/while/Less_1", "op": "Less", "input": ["StatefulPartitionedCall/sequential_1/bidirectional_1_2/forward_lstm_1_1/while/merge/_124", "StatefulPartitionedCall/sequential_1/bidirectional_1_2/forward_lstm_1_1/while/merge/_125", "^Func/StatefulPartitionedCall/sequential_1/bidirectional_1_2/forward_lstm_1_1/while/cond/_111/input_control_node/_267"], "attr": {"T": {"type": "DT_INT32"}}}, {"name": "StatefulPartitionedCall/sequential_1/bidirectional_1_2/forward_lstm_1_1/while/cond/_111/sequential_1/bidirectional_1_2/forward_lstm_1_1/while/Less/y", "op": "Const", "input": ["^Func/StatefulPartitionedCall/sequential_1/bidirectional_1_2/forward_lstm_1_1/while/cond/_111/input_control_node/_267"], "attr": {"value": {"tensor": {"dtype": "DT_INT32", "tensorShape": {}}}, "dtype": {"type": "DT_INT32"}}}, {"name": "StatefulPartitionedCall/sequential_1/bidirectional_1_2/backward_lstm_1_1/while/cond/_155/sequential_1/bidirectional_1_2/backward_lstm_1_1/while/Less", "op": "Less", "input": ["StatefulPartitionedCall/sequential_1/bidirectional_1_2/backward_lstm_1_1/while/merge/_170", "StatefulPartitionedCall/sequential_1/bidirectional_1_2/backward_lstm_1_1/while/cond/_155/sequential_1/bidirectional_1_2/backward_lstm_1_1/while/Less/y"], "attr": {"T": {"type": "DT_INT32"}}}, {"name": "StatefulPartitionedCall/sequential_1/bidirectional_1_2/forward_lstm_1_1/while/cond/_111/sequential_1/bidirectional_1_2/forward_lstm_1_1/while/Less", "op": "Less", "input": ["StatefulPartitionedCall/sequential_1/bidirectional_1_2/forward_lstm_1_1/while/merge/_126", "StatefulPartitionedCall/sequential_1/bidirectional_1_2/forward_lstm_1_1/while/cond/_111/sequential_1/bidirectional_1_2/forward_lstm_1_1/while/Less/y"], "attr": {"T": {"type": "DT_INT32"}}}, {"name": "StatefulPartitionedCall/sequential_1/bidirectional_1_2/backward_lstm_1_1/while/cond/_155/sequential_1/bidirectional_1_2/backward_lstm_1_1/while/LogicalAnd", "op": "LogicalAnd", "input": ["StatefulPartitionedCall/sequential_1/bidirectional_1_2/backward_lstm_1_1/while/cond/_155/sequential_1/bidirectional_1_2/backward_lstm_1_1/while/Less_1", "StatefulPartitionedCall/sequential_1/bidirectional_1_2/backward_lstm_1_1/while/cond/_155/sequential_1/bidirectional_1_2/backward_lstm_1_1/while/Less"]}, {"name": "StatefulPartitionedCall/sequential_1/bidirectional_1_2/forward_lstm_1_1/while/cond/_111/sequential_1/bidirectional_1_2/forward_lstm_1_1/while/LogicalAnd", "op": "LogicalAnd", "input": ["StatefulPartitionedCall/sequential_1/bidirectional_1_2/forward_lstm_1_1/while/cond/_111/sequential_1/bidirectional_1_2/forward_lstm_1_1/while/Less_1", "StatefulPartitionedCall/sequential_1/bidirectional_1_2/forward_lstm_1_1/while/cond/_111/sequential_1/bidirectional_1_2/forward_lstm_1_1/while/Less"]}, {"name": "StatefulPartitionedCall/sequential_1/bidirectional_1_2/backward_lstm_1_1/while/LoopCond/_175", "op": "LoopCond", "input": ["StatefulPartitionedCall/sequential_1/bidirectional_1_2/backward_lstm_1_1/while/cond/_155/sequential_1/bidirectional_1_2/backward_lstm_1_1/while/LogicalAnd"]}, {"name": "StatefulPartitionedCall/sequential_1/bidirectional_1_2/forward_lstm_1_1/while/LoopCond/_131", "op": "LoopCond", "input": ["StatefulPartitionedCall/sequential_1/bidirectional_1_2/forward_lstm_1_1/while/cond/_111/sequential_1/bidirectional_1_2/forward_lstm_1_1/while/LogicalAnd"]}, {"name": "StatefulPartitionedCall/sequential_1/bidirectional_1_2/backward_lstm_1_1/while/StatefulPartitionedCall/sequential_1/bidirectional_1_2/backward_lstm_1_1/Max_switch/_177", "op": "Switch", "input": ["StatefulPartitionedCall/sequential_1/bidirectional_1_2/backward_lstm_1_1/while/merge/_169", "StatefulPartitionedCall/sequential_1/bidirectional_1_2/backward_lstm_1_1/while/LoopCond/_175"], "attr": {"_has_manual_control_dependencies": {"b": true}, "T": {"type": "DT_INT32"}}}, {"name": "StatefulPartitionedCall/sequential_1/bidirectional_1_2/backward_lstm_1_1/while/StatefulPartitionedCall/sequential_1/bidirectional_1_2/backward_lstm_1_1/TensorArrayV2_1_switch/_179", "op": "Switch", "input": ["StatefulPartitionedCall/sequential_1/bidirectional_1_2/backward_lstm_1_1/while/merge/_171", "StatefulPartitionedCall/sequential_1/bidirectional_1_2/backward_lstm_1_1/while/LoopCond/_175"], "attr": {"_has_manual_control_dependencies": {"b": true}, "T": {"type": "DT_VARIANT"}}}, {"name": "StatefulPartitionedCall/sequential_1/bidirectional_1_2/backward_lstm_1_1/while/StatefulPartitionedCall/sequential_1/bidirectional_1_2/backward_lstm_1_1/while/loop_counter_switch/_176", "op": "Switch", "input": ["StatefulPartitionedCall/sequential_1/bidirectional_1_2/backward_lstm_1_1/while/merge/_168", "StatefulPartitionedCall/sequential_1/bidirectional_1_2/backward_lstm_1_1/while/LoopCond/_175"], "attr": {"T": {"type": "DT_INT32"}}}, {"name": "StatefulPartitionedCall/sequential_1/bidirectional_1_2/backward_lstm_1_1/while/StatefulPartitionedCall/sequential_1/bidirectional_1_2/backward_lstm_1_1/zeros_1_switch/_181", "op": "Switch", "input": ["StatefulPartitionedCall/sequential_1/bidirectional_1_2/backward_lstm_1_1/while/merge/_173", "StatefulPartitionedCall/sequential_1/bidirectional_1_2/backward_lstm_1_1/while/LoopCond/_175"], "attr": {"_has_manual_control_dependencies": {"b": true}, "T": {"type": "DT_FLOAT"}}}, {"name": "StatefulPartitionedCall/sequential_1/bidirectional_1_2/backward_lstm_1_1/while/StatefulPartitionedCall/sequential_1/bidirectional_1_2/backward_lstm_1_1/time_switch/_178", "op": "Switch", "input": ["StatefulPartitionedCall/sequential_1/bidirectional_1_2/backward_lstm_1_1/while/merge/_170", "StatefulPartitionedCall/sequential_1/bidirectional_1_2/backward_lstm_1_1/while/LoopCond/_175"], "attr": {"_has_manual_control_dependencies": {"b": true}, "T": {"type": "DT_INT32"}}}, {"name": "StatefulPartitionedCall/sequential_1/bidirectional_1_2/backward_lstm_1_1/while/StatefulPartitionedCall/sequential_1/bidirectional_1_2/backward_lstm_1_1/zeros_switch/_180", "op": "Switch", "input": ["StatefulPartitionedCall/sequential_1/bidirectional_1_2/backward_lstm_1_1/while/merge/_172", "StatefulPartitionedCall/sequential_1/bidirectional_1_2/backward_lstm_1_1/while/LoopCond/_175"], "attr": {"T": {"type": "DT_FLOAT"}}}, {"name": "StatefulPartitionedCall/sequential_1/bidirectional_1_2/backward_lstm_1_1/while/StatefulPartitionedCall/sequential_1/bidirectional_1_2/backward_lstm_1_1/TensorArrayUnstack/TensorListFromTensor_switch/_182", "op": "Switch", "input": ["StatefulPartitionedCall/sequential_1/bidirectional_1_2/backward_lstm_1_1/while/merge/_174", "StatefulPartitionedCall/sequential_1/bidirectional_1_2/backward_lstm_1_1/while/LoopCond/_175"], "attr": {"_has_manual_control_dependencies": {"b": true}, "T": {"type": "DT_VARIANT"}}}, {"name": "StatefulPartitionedCall/sequential_1/bidirectional_1_2/forward_lstm_1_1/while/StatefulPartitionedCall/sequential_1/bidirectional_1_2/forward_lstm_1_1/Max_switch/_133", "op": "Switch", "input": ["StatefulPartitionedCall/sequential_1/bidirectional_1_2/forward_lstm_1_1/while/merge/_125", "StatefulPartitionedCall/sequential_1/bidirectional_1_2/forward_lstm_1_1/while/LoopCond/_131"], "attr": {"T": {"type": "DT_INT32"}}}, {"name": "StatefulPartitionedCall/sequential_1/bidirectional_1_2/forward_lstm_1_1/while/StatefulPartitionedCall/sequential_1/bidirectional_1_2/forward_lstm_1_1/while/loop_counter_switch/_132", "op": "Switch", "input": ["StatefulPartitionedCall/sequential_1/bidirectional_1_2/forward_lstm_1_1/while/merge/_124", "StatefulPartitionedCall/sequential_1/bidirectional_1_2/forward_lstm_1_1/while/LoopCond/_131"], "attr": {"T": {"type": "DT_INT32"}}}, {"name": "StatefulPartitionedCall/sequential_1/bidirectional_1_2/forward_lstm_1_1/while/StatefulPartitionedCall/sequential_1/bidirectional_1_2/forward_lstm_1_1/zeros_1_switch/_137", "op": "Switch", "input": ["StatefulPartitionedCall/sequential_1/bidirectional_1_2/forward_lstm_1_1/while/merge/_129", "StatefulPartitionedCall/sequential_1/bidirectional_1_2/forward_lstm_1_1/while/LoopCond/_131"], "attr": {"_has_manual_control_dependencies": {"b": true}, "T": {"type": "DT_FLOAT"}}}, {"name": "StatefulPartitionedCall/sequential_1/bidirectional_1_2/forward_lstm_1_1/while/StatefulPartitionedCall/sequential_1/bidirectional_1_2/forward_lstm_1_1/TensorArrayUnstack/TensorListFromTensor_switch/_138", "op": "Switch", "input": ["StatefulPartitionedCall/sequential_1/bidirectional_1_2/forward_lstm_1_1/while/merge/_130", "StatefulPartitionedCall/sequential_1/bidirectional_1_2/forward_lstm_1_1/while/LoopCond/_131"], "attr": {"_has_manual_control_dependencies": {"b": true}, "T": {"type": "DT_VARIANT"}}}, {"name": "StatefulPartitionedCall/sequential_1/bidirectional_1_2/forward_lstm_1_1/while/StatefulPartitionedCall/sequential_1/bidirectional_1_2/forward_lstm_1_1/time_switch/_134", "op": "Switch", "input": ["StatefulPartitionedCall/sequential_1/bidirectional_1_2/forward_lstm_1_1/while/merge/_126", "StatefulPartitionedCall/sequential_1/bidirectional_1_2/forward_lstm_1_1/while/LoopCond/_131"], "attr": {"_has_manual_control_dependencies": {"b": true}, "T": {"type": "…
/bidirectional_1_2/forward_lstm_1_1/zeros_switch/_136:1", "StatefulPartitionedCall/sequential_1/bidirectional_1_2/forward_lstm_1_1/while/body/_112/sequential_1/bidirectional_1_2/forward_lstm_1_1/while/lstm_cell_1/Cast_1/ReadVariableOp"], "device": "/device:CPU:0", "attr": {"grad_a": {"b": false}, "transpose_a": {"b": false}, "T": {"type": "DT_FLOAT"}, "grad_b": {"b": false}, "transpose_b": {"b": false}}}, {"name": "Func/StatefulPartitionedCall/sequential_1/bidirectional_1_2/forward_lstm_1_1/while/body/_112/output_control_node/_300", "op": "NoOp", "input": ["^StatefulPartitionedCall/sequential_1/bidirectional_1_2/forward_lstm_1_1/while/body/_112/sequential_1/bidirectional_1_2/forward_lstm_1_1/while/lstm_cell_1/BiasAdd/ReadVariableOp", "^StatefulPartitionedCall/sequential_1/bidirectional_1_2/forward_lstm_1_1/while/body/_112/sequential_1/bidirectional_1_2/forward_lstm_1_1/while/lstm_cell_1/Cast/ReadVariableOp", "^StatefulPartitionedCall/sequential_1/bidirectional_1_2/forward_lstm_1_1/while/body/_112/sequential_1/bidirectional_1_2/forward_lstm_1_1/while/lstm_cell_1/Cast_1/ReadVariableOp"], "attr": {"_has_manual_control_dependencies": {"b": true}}}, {"name": "StatefulPartitionedCall/sequential_1/bidirectional_1_2/forward_lstm_1_1/while/body/_112/sequential_1/bidirectional_1_2/forward_lstm_1_1/while/NoOp", "op": "NoOp", "input": ["^StatefulPartitionedCall/sequential_1/bidirectional_1_2/forward_lstm_1_1/while/body/_112/sequential_1/bidirectional_1_2/forward_lstm_1_1/while/lstm_cell_1/BiasAdd/ReadVariableOp", "^StatefulPartitionedCall/sequential_1/bidirectional_1_2/forward_lstm_1_1/while/body/_112/sequential_1/bidirectional_1_2/forward_lstm_1_1/while/lstm_cell_1/Cast/ReadVariableOp", "^StatefulPartitionedCall/sequential_1/bidirectional_1_2/forward_lstm_1_1/while/body/_112/sequential_1/bidirectional_1_2/forward_lstm_1_1/while/lstm_cell_1/Cast_1/ReadVariableOp"], "attr": {"_has_manual_control_dependencies": {"b": true}}}, {"name": "StatefulPartitionedCall/sequential_1/bidirectional_1_2/concat", "op": "ConcatV2", "input": ["StatefulPartitionedCall/sequential_1/bidirectional_1_2/forward_lstm_1_1/strided_slice_3", "StatefulPartitionedCall/sequential_1/bidirectional_1_2/backward_lstm_1_1/strided_slice_3", "StatefulPartitionedCall/sequential_1/bidirectional_1_2/concat/axis"], "attr": {"N": {"i": "2"}, "T": {"type": "DT_FLOAT"}, "Tidx": {"type": "DT_INT32"}}}, {"name": "StatefulPartitionedCall/sequential_1/bidirectional_1_2/backward_lstm_1_1/while/body/_156/sequential_1/bidirectional_1_2/backward_lstm_1_1/while/lstm_cell_1/Add", "op": "_FusedMatMul", "input": ["StatefulPartitionedCall/sequential_1/bidirectional_1_2/backward_lstm_1_1/while/body/_156/sequential_1/bidirectional_1_2/backward_lstm_1_1/while/TensorArrayV2Read/TensorListGetItem", "StatefulPartitionedCall/sequential_1/bidirectional_1_2/backward_lstm_1_1/while/body/_156/sequential_1/bidirectional_1_2/backward_lstm_1_1/while/lstm_cell_1/Cast/ReadVariableOp", "StatefulPartitionedCall/sequential_1/bidirectional_1_2/backward_lstm_1_1/while/body/_156/sequential_1/bidirectional_1_2/backward_lstm_1_1/while/lstm_cell_1/MatMul_1"], "device": "/device:CPU:0", "attr": {"transpose_a": {"b": false}, "transpose_b": {"b": false}, "fused_ops": {"list": {"s": ["Qmlhc0FkZA=="]}}, "num_args": {"i": "1"}, "leakyrelu_alpha": {"f": 0.2}, "epsilon": {"f": 0.0}, "T": {"type": "DT_FLOAT"}}}, {"name": "StatefulPartitionedCall/sequential_1/bidirectional_1_2/backward_lstm_1_1/while/next_iteration/_198", "op": "NextIteration", "input": ["StatefulPartitionedCall/sequential_1/bidirectional_1_2/backward_lstm_1_1/while/StatefulPartitionedCall/sequential_1/bidirectional_1_2/backward_lstm_1_1/TensorArrayUnstack/TensorListFromTensor_switch/_182:1", "^Func/StatefulPartitionedCall/sequential_1/bidirectional_1_2/backward_lstm_1_1/while/body/_156/output_control_node/_334", "^Func/StatefulPartitionedCall/sequential_1/bidirectional_1_2/backward_lstm_1_1/while/body/_156/input_control_node/_313"], "attr": {"T": {"type": "DT_VARIANT"}}}, {"name": "StatefulPartitionedCall/sequential_1/bidirectional_1_2/backward_lstm_1_1/while/next_iteration/_193", "op": "NextIteration", "input": ["StatefulPartitionedCall/sequential_1/bidirectional_1_2/backward_lstm_1_1/while/StatefulPartitionedCall/sequential_1/bidirectional_1_2/backward_lstm_1_1/Max_switch/_177:1", "^Func/StatefulPartitionedCall/sequential_1/bidirectional_1_2/backward_lstm_1_1/while/body/_156/output_control_node/_334", "^StatefulPartitionedCall/sequential_1/bidirectional_1_2/backward_lstm_1_1/while/body/_156/sequential_1/bidirectional_1_2/backward_lstm_1_1/while/NoOp", "^Func/StatefulPartitionedCall/sequential_1/bidirectional_1_2/backward_lstm_1_1/while/body/_156/input_control_node/_313"], "attr": {"T": {"type": "DT_INT32"}}}, {"name": "StatefulPartitionedCall/sequential_1/bidirectional_1_2/backward_lstm_1_1/while/next_iteration/_192", "op": "NextIteration", "input": ["StatefulPartitionedCall/sequential_1/bidirectional_1_2/backward_lstm_1_1/while/body/_156/sequential_1/bidirectional_1_2/backward_lstm_1_1/while/add_1", "^Func/StatefulPartitionedCall/sequential_1/bidirectional_1_2/backward_lstm_1_1/while/body/_156/output_control_node/_334", "^StatefulPartitionedCall/sequential_1/bidirectional_1_2/backward_lstm_1_1/while/body/_156/sequential_1/bidirectional_1_2/backward_lstm_1_1/while/NoOp"], "attr": {"T": {"type": "DT_INT32"}}}, {"name": "StatefulPartitionedCall/sequential_1/bidirectional_1_2/backward_lstm_1_1/while/next_iteration/_194", "op": "NextIteration", "input": ["StatefulPartitionedCall/sequential_1/bidirectional_1_2/backward_lstm_1_1/while/body/_156/sequential_1/bidirectional_1_2/backward_lstm_1_1/while/add", "^Func/StatefulPartitionedCall/sequential_1/bidirectional_1_2/backward_lstm_1_1/while/body/_156/output_control_node/_334", "^StatefulPartitionedCall/sequential_1/bidirectional_1_2/backward_lstm_1_1/while/body/_156/sequential_1/bidirectional_1_2/backward_lstm_1_1/while/NoOp"], "attr": {"T": {"type": "DT_INT32"}}}, {"name": "StatefulPartitionedCall/sequential_1/bidirectional_1_2/forward_lstm_1_1/while/body/_112/sequential_1/bidirectional_1_2/forward_lstm_1_1/while/lstm_cell_1/Add", "op": "_FusedMatMul", "input": ["StatefulPartitionedCall/sequential_1/bidirectional_1_2/forward_lstm_1_1/while/body/_112/sequential_1/bidirectional_1_2/forward_lstm_1_1/while/TensorArrayV2Read/TensorListGetItem", "StatefulPartitionedCall/sequential_1/bidirectional_1_2/forward_lstm_1_1/while/body/_112/sequential_1/bidirectional_1_2/forward_lstm_1_1/while/lstm_cell_1/Cast/ReadVariableOp", "StatefulPartitionedCall/sequential_1/bidirectional_1_2/forward_lstm_1_1/while/body/_112/sequential_1/bidirectional_1_2/forward_lstm_1_1/while/lstm_cell_1/MatMul_1"], "device": "/device:CPU:0", "attr": {"transpose_a": {"b": false}, "transpose_b": {"b": false}, "fused_ops": {"list": {"s": ["Qmlhc0FkZA=="]}}, "leakyrelu_alpha": {"f": 0.2}, "num_args": {"i": "1"}, "epsilon": {"f": 0.0}, "T": {"type": "DT_FLOAT"}}}, {"name": "StatefulPartitionedCall/sequential_1/bidirectional_1_2/forward_lstm_1_1/while/next_iteration/_154", "op": "NextIteration", "input": ["StatefulPartitionedCall/sequential_1/bidirectional_1_2/forward_lstm_1_1/while/StatefulPartitionedCall/sequential_1/bidirectional_1_2/forward_lstm_1_1/TensorArrayUnstack/TensorListFromTensor_switch/_138:1", "^Func/StatefulPartitionedCall/sequential_1/bidirectional_1_2/forward_lstm_1_1/while/body/_112/output_control_node/_300", "^Func/StatefulPartitionedCall/sequential_1/bidirectional_1_2/forward_lstm_1_1/while/body/_112/input_control_node/_279"], "attr": {"T": {"type": "DT_VARIANT"}}}, {"name": "StatefulPartitionedCall/sequential_1/bidirectional_1_2/forward_lstm_1_1/while/next_iteration/_149", "op": "NextIteration", "input": ["StatefulPartitionedCall/sequential_1/bidirectional_1_2/forward_lstm_1_1/while/StatefulPartitionedCall/sequential_1/bidirectional_1_2/forward_lstm_1_1/Max_switch/_133:1", "^Func/StatefulPartitionedCall/sequential_1/bidirectional_1_2/forward_lstm_1_1/while/body/_112/output_control_node/_300", "^StatefulPartitionedCall/sequential_1/bidirectional_1_2/forward_lstm_1_1/while/body/_112/sequential_1/bidirectional_1_2/forward_lstm_1_1/while/NoOp", "^Func/StatefulPartitionedCall/sequential_1/bidirectional_1_2/forward_lstm_1_1/while/body/_112/input_control_node/_279"], "attr": {"T": {"type": "DT_INT32"}}}, {"name": "StatefulPartitionedCall/sequential_1/bidirectional_1_2/forward_lstm_1_1/while/next_iteration/_148", "op": "NextIteration", "input": ["StatefulPartitionedCall/sequential_1/bidirectional_1_2/forward_lstm_1_1/while/body/_112/sequential_1/bidirectional_1_2/forward_lstm_1_1/while/add_1", "^Func/StatefulPartitionedCall/sequential_1/bidirectional_1_2/forward_lstm_1_1/while/body/_112/output_control_node/_300", "^StatefulPartitionedCall/sequential_1/bidirectional_1_2/forward_lstm_1_1/while/body/_112/sequential_1/bidirectional_1_2/forward_lstm_1_1/while/NoOp"], "attr": {"T": {"type": "DT_INT32"}}}, {"name": "StatefulPartitionedCall/sequential_1/bidirectional_1_2/forward_lstm_1_1/while/next_iteration/_150", "op": "NextIteration", "input": ["StatefulPartitionedCall/sequential_1/bidirectional_1_2/forward_lstm_1_1/while/body/_112/sequential_1/bidirectional_1_2/forward_lstm_1_1/while/add", "^Func/StatefulPartitionedCall/sequential_1/bidirectional_1_2/forward_lstm_1_1/while/body/_112/output_control_node/_300", "^StatefulPartitionedCall/sequential_1/bidirectional_1_2/forward_lstm_1_1/while/body/_112/sequential_1/bidirectional_1_2/forward_lstm_1_1/while/NoOp"], "attr": {"T": {"type": "DT_INT32"}}}, {"name": "StatefulPartitionedCall/sequential_1/dense_1/Relu", "op": "_FusedMatMul", "input": ["StatefulPartitionedCall/sequential_1/bidirectional_1_2/concat", "StatefulPartitionedCall/sequential_1/dense_1/Cast/ReadVariableOp", "StatefulPartitionedCall/sequential_1/dense_1/BiasAdd/ReadVariableOp"], "device": "/device:CPU:0", "attr": {"transpose_a": {"b": false}, "transpose_b": {"b": false}, "fused_ops": {"list": {"s": ["Qmlhc0FkZA==", "UmVsdQ=="]}}, "leakyrelu_alpha": {"f": 0.2}, "num_args": {"i": "1"}, "epsilon": {"f": 0.0}, "T": {"type": "DT_FLOAT"}}}, {"name": "StatefulPartitionedCall/sequential_1/bidirectional_1_2/backward_lstm_1_1/while/body/_156/sequential_1/bidirectional_1_2/backward_lstm_1_1/while/lstm_cell_1/BiasAdd", "op": "BiasAdd", "input": ["StatefulPartitionedCall/sequential_1/bidirectional_1_2/backward_lstm_1_1/while/body/_156/sequential_1/bidirectional_1_2/backward_lstm_1_1/while/lstm_cell_1/Add", "StatefulPartitionedCall/sequential_1/bidirectional_1_2/backward_lstm_1_1/while/body/_156/sequential_1/bidirectional_1_2/backward_lstm_1_1/while/lstm_cell_1/BiasAdd/ReadVariableOp"], "attr": {"data_format": {"s": "TkhXQw=="}, "T": {"type": "DT_FLOAT"}}}, {"name": "StatefulPartitionedCall/sequential_1/bidirectional_1_2/forward_lstm_1_1/while/body/_112/sequential_1/bidirectional_1_2/forward_lstm_1_1/while/lstm_cell_1/BiasAdd", "op": "BiasAdd", "input": ["StatefulPartitionedCall/sequential_1/bidirectional_1_2/forward_lstm_1_1/while/body/_112/sequential_1/bidirectional_1_2/forward_lstm_1_1/while/lstm_cell_1/Add", "StatefulPartitionedCall/sequential_1/bidirectional_1_2/forward_lstm_1_1/while/body/_112/sequential_1/bidirectional_1_2/forward_lstm_1_1/while/lstm_cell_1/BiasAdd/ReadVariableOp"], "attr": {"data_format": {"s": "TkhXQw=="}, "T": {"type": "DT_FLOAT"}}}, {"name": "StatefulPartitionedCall/sequential_1/batch_normalization_1/batchnorm/mul_1", "op": "Mul", "input": ["StatefulPartitionedCall/sequential_1/dense_1/Relu", "StatefulPartitionedCall/sequential_1/batch_normalization_1/batchnorm/mul"], "attr": {"T": {"type": "DT_FLOAT"}}}, {"name": "StatefulPartitionedCall/sequential_1/bidirectional_1_2/backward_lstm_1_1/while/body/_156/sequential_1/bidirectional_1_2/backward_lstm_1_1/while/lstm_cell_1/split", "op": "Split", "input": ["StatefulPartitionedCall/sequential_1/bidirectional_1_2/backward_lstm_1_1/while/body/_156/sequential_1/bidirectional_1_2/backward_lstm_1_1/while/lstm_cell_1/split/split_dim", "StatefulPartitionedCall/sequential_1/bidirectional_1_2/backward_lstm_1_1/while/body/_156/sequential_1/bidirectional_1_2/backward_lstm_1_1/while/lstm_cell_1/BiasAdd"], "attr": {"num_split": {"i": "4"}, "T": {"type": "DT_FLOAT"}}}, {"name": "StatefulPartitionedCall/sequential_1/bidirectional_1_2/forward_lstm_1_1/while/body/_112/sequential_1/bidirectional_1_2/forward_lstm_1_1/while/lstm_cell_1/split", "op": "Split", "input": ["StatefulPartitionedCall/sequential_1/bidirectional_1_2/forward_lstm_1_1/while/body/_112/sequential_1/bidirectional_1_2/forward_lstm_1_1/while/lstm_cell_1/split/split_dim", "StatefulPartitionedCall/sequential_1/bidirectional_1_2/forward_lstm_1_1/while/body/_112/sequential_1/bidirectional_1_2/forward_lstm_1_1/while/lstm_cell_1/BiasAdd"], "attr": {"num_split": {"i": "4"}, "T": {"type": "DT_FLOAT"}}}, {"name": "StatefulPartitionedCall/sequential_1/batch_normalization_1/batchnorm/add_1", "op": "AddV2", "input": ["StatefulPartitionedCall/sequential_1/batch_normalization_1/batchnorm/mul_1", "StatefulPartitionedCall/sequential_1/batch_normalization_1/batchnorm/sub"], "attr": {"T": {"type": "DT_FLOAT"}}}, {"name": "StatefulPartitionedCall/sequential_1/bidirectional_1_2/backward_lstm_1_1/while/body/_156/sequential_1/bidirectional_1_2/backward_lstm_1_1/while/lstm_cell_1/Sigmoid", "op": "Sigmoid", "input": ["StatefulPartitionedCall/sequential_1/bidirectional_1_2/backward_lstm_1_1/while/body/_156/sequential_1/bidirectional_1_2/backward_lstm_1_1/while/lstm_cell_1/split"], "attr": {"T": {"type": "DT_FLOAT"}}}, {"name": "StatefulPartitionedCall/sequential_1/bidirectional_1_2/backward_lstm_1_1/while/body/_156/sequential_1/bidirectional_1_2/backward_lstm_1_1/while/lstm_cell_1/Sigmoid_1", "op": "Sigmoid", "input": ["StatefulPartitionedCall/sequential_1/bidirectional_1_2/backward_lstm_1_1/while/body/_156/sequential_1/bidirectional_1_2/backward_lstm_1_1/while/lstm_cell_1/split:1"], "attr": {"T": {"type": "DT_FLOAT"}}}, {"name": "StatefulPartitionedCall/sequential_1/bidirectional_1_2/backward_lstm_1_1/while/body/_156/sequential_1/bidirectional_1_2/backward_lstm_1_1/while/lstm_cell_1/Tanh", "op": "Tanh", "input": ["StatefulPartitionedCall/sequential_1/bidirectional_1_2/backward_lstm_1_1/while/body/_156/sequential_1/bidirectional_1_2/backward_lstm_1_1/while/lstm_cell_1/split:2"], "attr": {"T": {"type": "DT_FLOAT"}}}, {"name": "StatefulPartitionedCall/sequential_1/bidirectional_1_2/backward_lstm_1_1/while/body/_156/sequential_1/bidirectional_1_2/backward_lstm_1_1/while/lstm_cell_1/Sigmoid_2", "op": "Sigmoid", "input": ["StatefulPartitionedCall/sequential_1/bidirectional_1_2/backward_lstm_1_1/while/body/_156/sequential_1/bidirectional_1_2/backward_lstm_1_1/while/lstm_cell_1/split:3"], "attr": {"T": {"type": "DT_FLOAT"}}}, {"name": "StatefulPartitionedCall/sequential_1/bidirectional_1_2/forward_lstm_1_1/while/body/_112/sequential_1/bidirectional_1_2/forward_lstm_1_1/while/lstm_cell_1/Sigmoid", "op": "Sigmoid", "input": ["StatefulPartitionedCall/sequential_1/bidirectional_1_2/forward_lstm_1_1/while/body/_112/sequential_1/bidirectional_1_2/forward_lstm_1_1/while/lstm_cell_1/split"], "attr": {"T": {"type": "DT_FLOAT"}}}, {"name": "StatefulPartitionedCall/sequential_1/bidirectional_1_2/forward_lstm_1_1/while/body/_112/sequential_1/bidirectional_1_2/forward_lstm_1_1/while/lstm_cell_1/Sigmoid_1", "op": "Sigmoid", "input": ["StatefulPartitionedCall/sequential_1/bidirectional_1_2/forward_lstm_1_1/while/body/_112/sequential_1/bidirectional_1_2/forward_lstm_1_1/while/lstm_cell_1/split:1"], "attr": {"T": {"type": "DT_FLOAT"}}}, {"name": "StatefulPartitionedCall/sequential_1/bidirectional_1_2/forward_lstm_1_1/while/body/_112/sequential_1/bidirectional_1_2/forward_lstm_1_1/while/lstm_cell_1/Tanh", "op": "Tanh", "input": ["StatefulPartitionedCall/sequential_1/bidirectional_1_2/forward_lstm_1_1/while/body/_112/sequential_1/bidirectional_1_2/forward_lstm_1_1/while/lstm_cell_1/split:2"], "attr": {"T": {"type": "DT_FLOAT"}}}, {"name": "StatefulPartitionedCall/sequential_1/bidirectional_1_2/forward_lstm_1_1/while/body/_112/sequential_1/bidirectional_1_2/forward_lstm_1_1/while/lstm_cell_1/Sigmoid_2", "op": "Sigmoid", "input": ["StatefulPartitionedCall/sequential_1/bidirectional_1_2/forward_lstm_1_1/while/body/_112/sequential_1/bidirectional_1_2/forward_lstm_1_1/while/lstm_cell_1/split:3"], "attr": {"T": {"type": "DT_FLOAT"}}}, {"name": "StatefulPartitionedCall/sequential_1/dense_1_2/BiasAdd", "op": "_FusedMatMul", "input": ["StatefulPartitionedCall/sequential_1/batch_normalization_1/batchnorm/add_1", "StatefulPartitionedCall/sequential_1/dense_1_2/Cast/ReadVariableOp", "StatefulPartitionedCall/sequential_1/dense_1_2/BiasAdd/ReadVariableOp"], "device": "/device:CPU:0", "attr": {"transpose_a": {"b": false}, "transpose_b": {"b": false}, "fused_ops": {"list": {"s": ["Qmlhc0FkZA=="]}}, "num_args": {"i": "1"}, "leakyrelu_alpha": {"f": 0.2}, "epsilon": {"f": 0.0}, "T": {"type": "DT_FLOAT"}}}, {"name": "StatefulPartitionedCall/sequential_1/bidirectional_1_2/backward_lstm_1_1/while/body/_156/sequential_1/bidirectional_1_2/backward_lstm_1_1/while/lstm_cell_1/mul", "op": "Mul", "input": ["StatefulPartitionedCall/sequential_1/bidirectional_1_2/backward_lstm_1_1/while/body/_156/sequential_1/bidirectional_1_2/backward_lstm_1_1/while/lstm_cell_1/Sigmoid_1", "StatefulPartitionedCall/sequential_1/bidirectional_1_2/backward_lstm_1_1/while/StatefulPartitionedCall/sequential_1/bidirectional_1_2/backward_lstm_1_1/zeros_1_switch/_181:1"], "attr": {"T": {"type": "DT_FLOAT"}}}, {"name": "StatefulPartitionedCall/sequential_1/bidirectional_1_2/backward_lstm_1_1/while/body/_156/sequential_1/bidirectional_1_2/backward_lstm_1_1/while/lstm_cell_1/mul_1", "op": "Mul", "input": ["StatefulPartitionedCall/sequential_1/bidirectional_1_2/backward_lstm_1_1/while/body/_156/sequential_1/bidirectional_1_2/backward_lstm_1_1/while/lstm_cell_1/Sigmoid", "StatefulPartitionedCall/sequential_1/bidirectional_1_2/backward_lstm_1_1/while/body/_156/sequential_1/bidirectional_1_2/backward_lstm_1_1/while/lstm_cell_1/Tanh"], "attr": {"T": {"type": "DT_FLOAT"}}}, {"name": "StatefulPartitionedCall/sequential_1/bidirectional_1_2/forward_lstm_1_1/while/body/_112/sequential_1/bidirectional_1_2/forward_lstm_1_1/while/lstm_cell_1/mul", "op": "Mul", "input": ["StatefulPartitionedCall/sequential_1/bidirectional_1_2/forward_lstm_1_1/while/body/_112/sequential_1/bidirectional_1_2/forward_lstm_1_1/while/lstm_cell_1/Sigmoid_1", "StatefulPartitionedCall/sequential_1/bidirectional_1_2/forward_lstm_1_1/while/StatefulPartitionedCall/sequential_1/bidirectional_1_2/forward_lstm_1_1/zeros_1_switch/_137:1"], "attr": {"T": {"type": "DT_FLOAT"}}}, {"name": "StatefulPartitionedCall/sequential_1/bidirectional_1_2/forward_lstm_1_1/while/body/_112/sequential_1/bidirectional_1_2/forward_lstm_1_1/while/lstm_cell_1/mul_1", "op": "Mul", "input": ["StatefulPartitionedCall/sequential_1/bidirectional_1_2/forward_lstm_1_1/while/body/_112/sequential_1/bidirectional_1_2/forward_lstm_1_1/while/lstm_cell_1/Sigmoid", "StatefulPartitionedCall/sequential_1/bidirectional_1_2/forward_lstm_1_1/while/body/_112/sequential_1/bidirectional_1_2/forward_lstm_1_1/while/lstm_cell_1/Tanh"], "attr": {"T": {"type": "DT_FLOAT"}}}, {"name": "StatefulPartitionedCall/sequential_1/dense_1_2/Softmax", "op": "Softmax", "input": ["StatefulPartitionedCall/sequential_1/dense_1_2/BiasAdd"], "attr": {"T": {"type": "DT_FLOAT"}}}, {"name": "StatefulPartitionedCall/sequential_1/bidirectional_1_2/backward_lstm_1_1/while/body/_156/sequential_1/bidirectional_1_2/backward_lstm_1_1/while/lstm_cell_1/add_1", "op": "AddV2", "input": ["StatefulPartitionedCall/sequential_1/bidirectional_1_2/backward_lstm_1_1/while/body/_156/sequential_1/bidirectional_1_2/backward_lstm_1_1/while/lstm_cell_1/mul", "StatefulPartitionedCall/sequential_1/bidirectional_1_2/backward_lstm_1_1/while/body/_156/sequential_1/bidirectional_1_2/backward_lstm_1_1/while/lstm_cell_1/mul_1"], "attr": {"T": {"type": "DT_FLOAT"}}}, {"name": "StatefulPartitionedCall/sequential_1/bidirectional_1_2/forward_lstm_1_1/while/body/_112/sequential_1/bidirectional_1_2/forward_lstm_1_1/while/lstm_cell_1/add_1", "op": "AddV2", "input": ["StatefulPartitionedCall/sequential_1/bidirectional_1_2/forward_lstm_1_1/while/body/_112/sequential_1/bidirectional_1_2/forward_lstm_1_1/while/lstm_cell_1/mul", "StatefulPartitionedCall/sequential_1/bidirectional_1_2/forward_lstm_1_1/while/body/_112/sequential_1/bidirectional_1_2/forward_lstm_1_1/while/lstm_cell_1/mul_1"], "attr": {"T": {"type": "DT_FLOAT"}}}, {"name": "Identity", "op": "Identity", "input": ["StatefulPartitionedCall/sequential_1/dense_1_2/Softmax", "^StatefulPartitionedCall/sequential_1/bidirectional_1/forward_lstm_1/while/exit/_57", "^StatefulPartitionedCall/sequential_1/bidirectional_1/forward_lstm_1/while/exit/_56", "^StatefulPartitionedCall/sequential_1/bidirectional_1_2/forward_lstm_1_1/while/exit/_144", "^StatefulPartitionedCall/sequential_1/bidirectional_1_2/forward_lstm_1_1/while/exit/_145", "^StatefulPartitionedCall/sequential_1/bidirectional_1_2/backward_lstm_1_1/while/exit/_184", "^StatefulPartitionedCall/sequential_1/bidirectional_1_2/backward_lstm_1_1/while/exit/_185", "^StatefulPartitionedCall/sequential_1/bidirectional_1_2/backward_lstm_1_1/while/exit/_186", "^StatefulPartitionedCall/sequential_1/bidirectional_1_2/backward_lstm_1_1/while/exit/_187", "^StatefulPartitionedCall/sequential_1/bidirectional_1_2/backward_lstm_1_1/while/exit/_188", "^StatefulPartitionedCall/sequential_1/bidirectional_1/backward_lstm_1/while/exit/_99", "^StatefulPartitionedCall/sequential_1/bidirectional_1_2/backward_lstm_1_1/while/exit/_189", "^StatefulPartitionedCall/sequential_1/bidirectional_1/backward_lstm_1/while/exit/_100", "^StatefulPartitionedCall/sequential_1/bidirectional_1/backward_lstm_1/while/exit/_101", "^StatefulPartitionedCall/sequential_1/bidirectional_1/forward_lstm_1/while/exit/_58", "^StatefulPartitionedCall/sequential_1/bidirectional_1/backward_lstm_1/while/exit/_102", "^StatefulPartitionedCall/sequential_1/bidirectional_1/backward_lstm_1/while/exit/_96", "^StatefulPartitionedCall/sequential_1/bidirectional_1/backward_lstm_1/while/exit/_97", "^StatefulPartitionedCall/sequential_1/bidirectional_1_2/backward_lstm_1_1/while/exit/_190", "^StatefulPartitionedCall/sequential_1/bidirectional_1/backward_lstm_1/while/exit/_98", "^StatefulPartitionedCall/sequential_1/bidirectional_1/forward_lstm_1/while/exit/_52", "^StatefulPartitionedCall/sequential_1/bidirectional_1/forward_lstm_1/while/exit/_53", "^StatefulPartitionedCall/sequential_1/bidirectional_1_2/forward_lstm_1_1/while/exit/_146", "^StatefulPartitionedCall/sequential_1/bidirectional_1/forward_lstm_1/while/exit/_54", "^StatefulPartitionedCall/sequential_1/bidirectional_1/forward_lstm_1/while/exit/_55", "^StatefulPartitionedCall/sequential_1/bidirectional_1_2/forward_lstm_1_1/while/exit/_140", "^StatefulPartitionedCall/sequential_1/bidirectional_1_2/forward_lstm_1_1/while/exit/_141", "^StatefulPartitionedCall/sequential_1/bidirectional_1_2/forward_lstm_1_1/while/exit/_142", "^StatefulPartitionedCall/sequential_1/bidirectional_1_2/forward_lstm_1_1/while/exit/_143"], "attr": {"T": {"type": "DT_FLOAT"}}}, {"name": "StatefulPartitionedCall/sequential_1/bidirectional_1_2/backward_lstm_1_1/while/body/_156/sequential_1/bidirectional_1_2/backward_lstm_1_1/while/lstm_cell_1/Tanh_1", "op": "Tanh", "input": ["StatefulPartitionedCall/sequential_1/bidirectional_1_2/backward_lstm_1_1/while/body/_156/sequential_1/bidirectional_1_2/backward_lstm_1_1/while/lstm_cell_1/add_1"], "attr": {"T": {"type": "DT_FLOAT"}}}, {"name": "StatefulPartitionedCall/sequential_1/bidirectional_1_2/backward_lstm_1_1/while/next_iteration/_197", "op": "NextIteration", "input": ["StatefulPartitionedCall/sequential_1/bidirectional_1_2/backward_lstm_1_1/while/body/_156/sequential_1/bidirectional_1_2/backward_lstm_1_1/while/lstm_cell_1/add_1", "^Func/StatefulPartitionedCall/sequential_1/bidirectional_1_2/backward_lstm_1_1/while/body/_156/output_control_node/_334", "^StatefulPartitionedCall/sequential_1/bidirectional_1_2/backward_lstm_1_1/while/body/_156/sequential_1/bidirectional_1_2/backward_lstm_1_1/while/NoOp"], "attr": {"T": {"type": "DT_FLOAT"}}}, {"name": "StatefulPartitionedCall/sequential_1/bidirectional_1_2/forward_lstm_1_1/while/body/_112/sequential_1/bidirectional_1_2/forward_lstm_1_1/while/lstm_cell_1/Tanh_1", "op": "Tanh", "input": ["StatefulPartitionedCall/sequential_1/bidirectional_1_2/forward_lstm_1_1/while/body/_112/sequential_1/bidirectional_1_2/forward_lstm_1_1/while/lstm_cell_1/add_1"], "attr": {"T": {"type": "DT_FLOAT"}}}, {"name": "StatefulPartitionedCall/sequential_1/bidirectional_1_2/forward_lstm_1_1/while/next_iteration/_153", "op": "NextIteration", "input": ["StatefulPartitionedCall/sequential_1/bidirectional_1_2/forward_lstm_1_1/while/body/_112/sequential_1/bidirectional_1_2/forward_lstm_1_1/while/lstm_cell_1/add_1", "^Func/StatefulPartitionedCall/sequential_1/bidirectional_1_2/forward_lstm_1_1/while/body/_112/output_control_node/_300", "^StatefulPartitionedCall/sequential_1/bidirectional_1_2/forward_lstm_1_1/while/body/_112/sequential_1/bidirectional_1_2/forward_lstm_1_1/while/NoOp"], "attr": {"T": {"type": "DT_FLOAT"}}}, {"name": "StatefulPartitionedCall/sequential_1/bidirectional_1_2/backward_lstm_1_1/while/body/_156/sequential_1/bidirectional_1_2/backward_lstm_1_1/while/lstm_cell_1/mul_2", "op": "Mul", "input": ["StatefulPartitionedCall/sequential_1/bidirectional_1_2/backward_lstm_1_1/while/body/_156/sequential_1/bidirectional_1_2/backward_lstm_1_1/while/lstm_cell_1/Sigmoid_2", "StatefulPartitionedCall/sequential_1/bidirectional_1_2/backward_lstm_1_1/while/body/_156/sequential_1/bidirectional_1_2/backward_lstm_1_1/while/lstm_cell_1/Tanh_1"], "attr": {"T": {"type": "DT_FLOAT"}}}, {"name": "StatefulPartitionedCall/sequential_1/bidirectional_1_2/forward_lstm_1_1/while/body/_112/sequential_1/bidirectional_1_2/forward_lstm_1_1/while/lstm_cell_1/mul_2", "op": "Mul", "input": ["StatefulPartitionedCall/sequential_1/bidirectional_1_2/forward_lstm_1_1/while/body/_112/sequential_1/bidirectional_1_2/forward_lstm_1_1/while/lstm_cell_1/Sigmoid_2", "StatefulPartitionedCall/sequential_1/bidirectional_1_2/forward_lstm_1_1/while/body/_112/sequential_1/bidirectional_1_2/forward_lstm_1_1/while/lstm_cell_1/Tanh_1"], "attr": {"T": {"type": "DT_FLOAT"}}}, {"name": "StatefulPartitionedCall/sequential_1/bidirectional_1_2/backward_lstm_1_1/while/body/_156/sequential_1/bidirectional_1_2/backward_lstm_1_1/while/TensorArrayV2Write/TensorListSetItem", "op": "TensorListSetItem", "input": ["StatefulPartitionedCall/sequential_1/bidirectional_1_2/backward_lstm_1_1/while/StatefulPartitionedCall/sequential_1/bidirectional_1_2/backward_lstm_1_1/TensorArrayV2_1_switch/_179:1", "StatefulPartitionedCall/sequential_1/bidirectional_1_2/backward_lstm_1_1/while/body/_156/sequential_1/bidirectional_1_2/backward_lstm_1_1/while/TensorArrayV2Write/TensorListSetItem/index", "StatefulPartitionedCall/sequential_1/bidirectional_1_2/backward_lstm_1_1/while/body/_156/sequential_1/bidirectional_1_2/backward_lstm_1_1/while/lstm_cell_1/mul_2"], "attr": {"element_dtype": {"type": "DT_FLOAT"}, "resize_if_index_out_of_bounds": {"b": false}}, "experimentalType": {"typeId": "TFT_PRODUCT", "args": [{"typeId": "TFT_ARRAY", "args": [{"typeId": "TFT_TENSOR", "args": [{"typeId": "TFT_FLOAT"}]}]}]}}, {"name": "StatefulPartitionedCall/sequential_1/bidirectional_1_2/backward_lstm_1_1/while/next_iteration/_196", "op": "NextIteration", "input": ["StatefulPartitionedCall/sequential_1/bidirectional_1_2/backward_lstm_1_1/while/body/_156/sequential_1/bidirectional_1_2/backward_lstm_1_1/while/lstm_cell_1/mul_2", "^Func/StatefulPartitionedCall/sequential_1/bidirectional_1_2/backward_lstm_1_1/while/body/_156/output_control_node/_334", "^StatefulPartitionedCall/sequential_1/bidirectional_1_2/backward_lstm_1_1/while/body/_156/sequential_1/bidirectional_1_2/backward_lstm_1_1/while/NoOp"], "attr": {"T": {"type": "DT_FLOAT"}}}, {"name": "StatefulPartitionedCall/sequential_1/bidirectional_1_2/forward_lstm_1_1/while/body/_112/sequential_1/bidirectional_1_2/forward_lstm_1_1/while/TensorArrayV2Write/TensorListSetItem", "op": "TensorListSetItem", "input": ["StatefulPartitionedCall/sequential_1/bidirectional_1_2/forward_lstm_1_1/while/StatefulPartitionedCall/sequential_1/bidirectional_1_2/forward_lstm_1_1/TensorArrayV2_1_switch/_135:1", "StatefulPartitionedCall/sequential_1/bidirectional_1_2/forward_lstm_1_1/while/body/_112/sequential_1/bidirectional_1_2/forward_lstm_1_1/while/TensorArrayV2Write/TensorListSetItem/index", "StatefulPartitionedCall/sequential_1/bidirectional_1_2/forward_lstm_1_1/while/body/_112/sequential_1/bidirectional_1_2/forward_lstm_1_1/while/lstm_cell_1/mul_2"], "attr": {"element_dtype": {"type": "DT_FLOAT"}, "resize_if_index_out_of_bounds": {"b": false}}, "experimentalType": {"typeId": "TFT_PRODUCT", "args": [{"typeId": "TFT_ARRAY", "args": [{"typeId": "TFT_TENSOR", "args": [{"typeId": "TFT_FLOAT"}]}]}]}}, {"name": "StatefulPartitionedCall/sequential_1/bidirectional_1_2/forward_lstm_1_1/while/next_iteration/_152", "op": "NextIteration", "input": ["StatefulPartitionedCall/sequential_1/bidirectional_1_2/forward_lstm_1_1/while/body/_112/sequential_1/bidirectional_1_2/forward_lstm_1_1/while/lstm_cell_1/mul_2", "^Func/StatefulPartitionedCall/sequential_1/bidirectional_1_2/forward_lstm_1_1/while/body/_112/output_control_node/_300", "^StatefulPartitionedCall/sequential_1/bidirectional_1_2/forward_lstm_1_1/while/body/_112/sequential_1/bidirectional_1_2/forward_lstm_1_1/while/NoOp"], "attr": {"T": {"type": "DT_FLOAT"}}}, {"name": "StatefulPartitionedCall/sequential_1/bidirectional_1_2/backward_lstm_1_1/while/next_iteration/_195", "op": "NextIteration", "input": ["StatefulPartitionedCall/sequential_1/bidirectional_1_2/backward_lstm_1_1/while/body/_156/sequential_1/bidirectional_1_2/backward_lstm_1_1/while/TensorArrayV2Write/TensorListSetItem", "^Func/StatefulPartitionedCall/sequential_1/bidirectional_1_2/backward_lstm_1_1/while/body/_156/output_control_node/_334", "^StatefulPartitionedCall/sequential_1/bidirectional_1_2/backward_lstm_1_1/while/body/_156/sequential_1/bidirectional_1_2/backward_lstm_1_1/while/NoOp"], "attr": {"T": {"type": "DT_VARIANT"}}}, {"name": "StatefulPartitionedCall/sequential_1/bidirectional_1_2/forward_lstm_1_1/while/next_iteration/_151", "op": "NextIteration", "input": ["StatefulPartitionedCall/sequential_1/bidirectional_1_2/forward_lstm_1_1/while/body/_112/sequential_1/bidirectional_1_2/forward_lstm_1_1/while/TensorArrayV2Write/TensorListSetItem", "^Func/StatefulPartitionedCall/sequential_1/bidirectional_1_2/forward_lstm_1_1/while/body/_112/output_control_node/_300", "^StatefulPartitionedCall/sequential_1/bidirectional_1_2/forward_lstm_1_1/while/body/_112/sequential_1/bidirectional_1_2/forward_lstm_1_1/while/NoOp"], "attr": {"T": {"type": "DT_VARIANT"}}}], "library": {}, "versions": {"producer": 1994}}, "weightsManifest": [{"paths": ["group1-shard1of1.bin"], "weights": [{"name": "StatefulPartitionedCall/sequential_1/bidirectional_1_2/forward_lstm_1_1/TensorArrayV2Stack/TensorListStack/element_shape", "shape": [2], "dtype": "int32"}, {"name": "StatefulPartitionedCall/sequential_1/bidirectional_1_2/forward_lstm_1_1/strided_slice_3/stack", "shape": [1], "dtype": "int32"}, {"name": "StatefulPartitionedCall/sequential_1/bidirectional_1_2/forward_lstm_1_1/strided_slice_3/stack_1", "shape": [1], "dtype": "int32"}, {"name": "StatefulPartitionedCall/sequential_1/bidirectional_1_2/forward_lstm_1_1/strided_slice_3/stack_2", "shape": [1], "dtype": "int32"}, {"name": "StatefulPartitionedCall/sequential_1/bidirectional_1_2/backward_lstm_1_1/TensorArrayV2Stack/TensorListStack/element_shape", "shape": [2], "dtype": "int32"}, {"name": "StatefulPartitionedCall/sequential_1/bidirectional_1_2/backward_lstm_1_1/strided_slice_3/stack", "shape": [1], "dtype": "int32"}, {"name": "StatefulPartitionedCall/sequential_1/bidirectional_1_2/backward_lstm_1_1/strided_slice_3/stack_1", "shape": [1], "dtype": "int32"}, {"name": "StatefulPartitionedCall/sequential_1/bidirectional_1_2/backward_lstm_1_1/strided_slice_3/stack_2", "shape": [1], "dtype": "int32"}, {"name": "StatefulPartitionedCall/sequential_1/bidirectional_1_2/concat/axis", "shape": [], "dtype": "int32"}, {"name": "StatefulPartitionedCall/sequential_1/dense_1/Cast/ReadVariableOp", "shape": [128, 64], "dtype": "float32"}, {"name": "StatefulPartitionedCall/sequential_1/dense_1/BiasAdd/ReadVariableOp", "shape": [64], "dtype": "float32"}, {"name": "StatefulPartitionedCall/sequential_1/batch_normalization_1/batchnorm/mul", "shape": [64], "dtype": "float32"}, {"name": "StatefulPartitionedCall/sequential_1/batch_normalization_1/batchnorm/sub", "shape": [64], "dtype": "float32"}, {"name": "StatefulPartitionedCall/sequential_1/dense_1_2/Cast/ReadVariableOp", "shape": [64, 29], "dtype": "float32"}, {"name": "StatefulPartitionedCall/sequential_1/dense_1_2/BiasAdd/ReadVariableOp", "shape": [29], "dtype": "float32"}, {"name": "StatefulPartitionedCall/sequential_1/bidirectional_1_2/backward_lstm_1_1/Max", "shape": [], "dtype": "int32"}, {"name": "StatefulPartitionedCall/sequential_1/bidirectional_1_2/backward_lstm_1_1/while/loop_counter", "shape": [], "dtype": "int32"}, {"name": "StatefulPartitionedCall/sequential_1/bidirectional_1_2/backward_lstm_1_1/time", "shape": [], "dtype": "int32"}, {"name": "Func/StatefulPartitionedCall/input/_10", "shape": [256, 256], "dtype": "float32"}, {"name": "Func/StatefulPartitionedCall/input/_11", "shape": [64, 256], "dtype": "float32"}, {"name": "Func/StatefulPartitionedCall/input/_12", "shape": [256], "dtype": "float32"}, {"name": "StatefulPartitionedCall/sequential_1/bidirectional_1_2/backward_lstm_1_1/transpose/perm", "shape": [3], "dtype": "int32"}, {"name": "StatefulPartitionedCall/sequential_1/bidirectional_1_2/backward_lstm_1_1/ReverseV2/axis", "shape": [1], "dtype": "int32"}, {"name": "StatefulPartitionedCall/sequential_1/bidirectional_1_2/backward_lstm_1_1/TensorArrayUnstack/TensorListFromTensor/element_shape", "shape": [2], "dtype": "int32"}, {"name": "StatefulPartitionedCall/sequential_1/bidirectional_1_2/backward_lstm_1_1/TensorArrayV2_1/element_shape", "shape": [2], "dtype": "int32"}, {"name": "StatefulPartitionedCall/sequential_1/bidirectional_1_2/backward_lstm_1_1/TensorArrayV2_1/num_elements", "shape": [], "dtype": "int32"}, {"name": "StatefulPartitionedCall/sequential_1/bidirectional_1_2/backward_lstm_1_1/zeros/packed/1", "shape": [], "dtype": "int32"}, {"name": "StatefulPartitionedCall/sequential_1/bidirectional_1_2/backward_lstm_1_1/zeros/Const", "shape": [], "dtype": "float32"}, {"name": "StatefulPartitionedCall/sequential_1/bidirectional_1_2/backward_lstm_1_1/strided_slice/stack", "shape": [1], "dtype": "int32"}, {"name": "StatefulPartitionedCall/sequential_1/bidirectional_1_2/backward_lstm_1_1/strided_slice/stack_1", "shape": [1], "dtype": "int32"}, {"name": "StatefulPartitionedCall/sequential_1/bidirectional_1_2/backward_lstm_1_1/strided_slice/stack_2", "shape": [1], "dtype": "int32"}, {"name": "StatefulPartitionedCall/sequential_1/bidirectional_1_2/backward_lstm_1_1/zeros_1/packed/1", "shape": [], "dtype": "int32"}, {"name": "StatefulPartitionedCall/sequential_1/bidirectional_1_2/backward_lstm_1_1/zeros_1/Const", "shape": [], "dtype": "float32"}, {"name": "StatefulPartitionedCall/sequential_1/bidirectional_1_2/forward_lstm_1_1/Max", "shape": [], "dtype": "int32"}, {"name": "StatefulPartitionedCall/sequential_1/bidirectional_1_2/forward_lstm_1_1/while/loop_counter", "shape": [], "dtype": "int32"}, {"name": "StatefulPartitionedCall/sequential_1/bidirectional_1_2/forward_lstm_1_1/time", "shape": [], "dtype": "int32"}, {"name": "Func/StatefulPartitionedCall/input/_7", "shape": [256, 256], "dtype": "float32"}, {"name": "Func/StatefulPartitionedCall/input/_8", "shape": [64, 256], "dtype": "float32"}, {"name": "Func/StatefulPartitionedCall/input/_9", "shape": [256], "dtype": "float32"}, {"name": "StatefulPartitionedCall/sequential_1/bidirectional_1_2/forward_lstm_1_1/transpose/perm", "shape": [3], "dtype": "int32"}, {"name": "StatefulPartitionedCall/sequential_1/bidirectional_1_2/forward_lstm_1_1/TensorArrayUnstack/TensorListFromTensor/element_shape", "shape": [2], "dtype": "int32"}, {"name": "StatefulPartitionedCall/sequential_1/bidirectional_1_2/forward_lstm_1_1/TensorArrayV2_1/element_shape", "shape": [2], "dtype": "int32"}, {"name": "StatefulPartitionedCall/sequential_1/bidirectional_1_2/forward_lstm_1_1/TensorArrayV2_1/num_elements", "shape": [], "dtype": "int32"}, {"name": "StatefulPartitionedCall/sequential_1/bidirectional_1_2/forward_lstm_1_1/zeros/packed/1", "shape": [], "dtype": "int32"}, {"name": "StatefulPartitionedCall/sequential_1/bidirectional_1_2/forward_lstm_1_1/zeros/Const", "shape": [], "dtype": "float32"}, {"name": "StatefulPartitionedCall/sequential_1/bidirectional_1/forward_lstm_1/Max", "shape": [], "dtype": "int32"}, {"name": "StatefulPartitionedCall/sequential_1/bidirectional_1/forward_lstm_1/while/loop_counter", "shape": [], "dtype": "int32"}, {"name": "StatefulPartitionedCall/sequential_1/bidirectional_1/forward_lstm_1/time", "shape": [], "dtype": "int32"}, {"name": "Func/StatefulPartitionedCall/input/_1", "shape": [42, 512], "dtype": "float32"}, {"name": "Func/StatefulPartitionedCall/input/_2", "shape": [128, 512], "dtype": "float32"}, {"name": "Func/StatefulPartitionedCall/input/_3", "shape": [512], "dtype": "float32"}, {"name": "StatefulPartitionedCall/sequential_1/bidirectional_1/forward_lstm_1/transpose/perm", "shape": [3], "dtype": "int32"}, {"name": "StatefulPartitionedCall/sequential_1/bidirectional_1/forward_lstm_1/TensorArrayUnstack/TensorListFromTensor/element_shape", "shape": [2], "dtype": "int32"}, {"name": "StatefulPartitionedCall/sequential_1/bidirectional_1/forward_lstm_1/TensorArrayV2_1/element_shape", "shape": [2], "dtype": "int32"}, {"name": "StatefulPartitionedCall/sequential_1/bidirectional_1/forward_lstm_1/TensorArrayV2_1/num_elements", "shape": [], "dtype": "int32"}, {"name": "StatefulPartitionedCall/sequential_1/bidirectional_1/forward_lstm_1/zeros/packed/1", "shape": [], "dtype": "int32"}, {"name": "StatefulPartitionedCall/sequential_1/bidirectional_1/forward_lstm_1/zeros/Const", "shape": [], "dtype": "float32"}, {"name": "StatefulPartitionedCall/sequential_1/bidirectional_1/forward_lstm_1/strided_slice/stack", "shape": [1], "dtype": "int32"}, {"name": "StatefulPartitionedCall/sequential_1/bidirectional_1/forward_lstm_1/strided_slice/stack_1", "shape": [1], "dtype": "int32"}, {"name": "StatefulPartitionedCall/sequential_1/bidirectional_1/forward_lstm_1/strided_slice/stack_2", "shape": [1], "dtype": "int32"}, {"name": "StatefulPartitionedCall/sequential_1/bidirectional_1/forward_lstm_1/zeros_1/packed/1", "shape": [], "dtype": "int32"}, {"name": "StatefulPartitionedCall/sequential_1/bidirectional_1/forward_lstm_1/zeros_1/Const", "shape": [], "dtype": "float32"}, {"name": "StatefulPartitionedCall/sequential_1/bidirectional_1/forward_lstm_1/TensorArrayV2Stack/TensorListStack/element_shape", "shape": [2], "dtype": "int32"}, {"name": "StatefulPartitionedCall/sequential_1/bidirectional_1/forward_lstm_1/transpose_1/perm", "shape": [3], "dtype": "int32"}, {"name": "StatefulPartitionedCall/sequential_1/bidirectional_1/backward_lstm_1/Max", "shape": [], "dtype": "int32"}, {"name": "StatefulPartitionedCall/sequential_1/bidirectional_1/backward_lstm_1/while/loop_counter", "shape": [], "dtype": "int32"}, {"name": "StatefulPartitionedCall/sequential_1/bidirectional_1/backward_lstm_1/time", "shape": [], "dtype": "int32"}, {"name": "Func/StatefulPartitionedCall/input/_4", "shape": [42, 512], "dtype": "float32"}, {"name": "Func/StatefulPartitionedCall/input/_5", "shape": [128, 512], "dtype": "float32"}, {"name": "Func/StatefulPartitionedCall/input/_6", "shape": [512], "dtype": "float32"}, {"name": "StatefulPartitionedCall/sequential_1/bidirectional_1/backward_lstm_1/transpose/perm", "shape": [3], "dtype": "int32"}, {"name": "StatefulPartitionedCall/sequential_1/bidirectional_1/backward_lstm_1/ReverseV2/axis", "shape": [1], "dtype": "int32"}, {"name": "StatefulPartitionedCall/sequential_1/bidirectional_1/backward_lstm_1/TensorArrayUnstack/TensorListFromTensor/element_shape", "shape": [2], "dtype": "int32"}, {"name": "StatefulPartitionedCall/sequential_1/bidirectional_1/backward_lstm_1/TensorArrayV2_1/element_shape", "shape": [2], "dtype": "int32"}, {"name": "StatefulPartitionedCall/sequential_1/bidirectional_1/backward_lstm_1/TensorArrayV2_1/num_elements", "shape": [], "dtype": "int32"}, {"name": "StatefulPartitionedCall/sequential_1/bidirectional_1/backward_lstm_1/zeros/packed/1", "shape": [], "dtype": "int32"}, {"name": "StatefulPartitionedCall/sequential_1/bidirectional_1/backward_lstm_1/zeros/Const", "shape": [], "dtype": "float32"}, {"name": "StatefulPartitionedCall/sequential_1/bidirectional_1/backward_lstm_1/strided_slice/stack", "shape": [1], "dtype": "int32"}, {"name": "StatefulPartitionedCall/sequential_1/bidirectional_1/backward_lstm_1/strided_slice/stack_1", "shape": [1], "dtype": "int32"}, {"name": "StatefulPartitionedCall/sequential_1/bidirectional_1/backward_lstm_1/strided_slice/stack_2", "shape": [1], "dtype": "int32"}, {"name": "StatefulPartitionedCall/sequential_1/bidirectional_1/backward_lstm_1/zeros_1/packed/1", "shape": [], "dtype": "int32"}, {"name": "StatefulPartitionedCall/sequential_1/bidirectional_1/backward_lstm_1/zeros_1/Const", "shape": [], "dtype": "float32"}, {"name": "StatefulPartitionedCall/sequential_1/bidirectional_1/backward_lstm_1/TensorArrayV2Stack/TensorListStack/element_shape", "shape": [2], "dtype": "int32"}, {"name": "StatefulPartitionedCall/sequential_1/bidirectional_1/backward_lstm_1/transpose_1/perm", "shape": [3], "dtype": "int32"}, {"name": "StatefulPartitionedCall/sequential_1/bidirectional_1/ReverseV2/axis", "shape": [1], "dtype": "int32"}, {"name": "StatefulPartitionedCall/sequential_1/bidirectional_1/concat/axis", "shape": [], "dtype": "int32"}, {"name": "StatefulPartitionedCall/sequential_1/bidirectional_1_2/forward_lstm_1_1/strided_slice/stack", "shape": [1], "dtype": "int32"}, {"name": "StatefulPartitionedCall/sequential_1/bidirectional_1_2/forward_lstm_1_1/strided_slice/stack_1", "shape": [1], "dtype": "int32"}, {"name": "StatefulPartitionedCall/sequential_1/bidirectional_1_2/forward_lstm_1_1/strided_slice/stack_2", "shape": [1], "dtype": "int32"}, {"name": "StatefulPartitionedCall/sequential_1/bidirectional_1_2/forward_lstm_1_1/zeros_1/packed/1", "shape": [], "dtype": "int32"}, {"name": "StatefulPartitionedCall/sequential_1/bidirectional_1_2/forward_lstm_1_1/zeros_1/Const", "shape": [], "dtype": "float32"}, {"name": "StatefulPartitionedCall/sequential_1/bidirectional_1/forward_lstm_1/while/cond/_23/sequential_1/bidirectional_1/forward_lstm_1/while/Less/y", "shape": [], "dtype": "int32"}, {"name": "StatefulPartitionedCall/sequential_1/bidirectional_1/backward_lstm_1/while/cond/_67/sequential_1/bidirectional_1/backward_lstm_1/while/Less/y", "shape": [], "dtype": "int32"}, {"name": "StatefulPartitionedCall/sequential_1/bidirectional_1/forward_lstm_1/while/body/_24/sequential_1/bidirectional_1/forward_lstm_1/while/add_1/y", "shape": [], "dtype": "int32"}, {"name": "StatefulPartitionedCall/sequential_1/bidirectional_1/forward_lstm_1/while/body/_24/sequential_1/bidirectional_1/forward_lstm_1/while/lstm_cell_1/split/split_dim", "shape": [], "dtype": "int32"}, {"name": "StatefulPartitionedCall/sequential_1/bidirectional_1/forward_lstm_1/while/body/_24/sequential_1/bidirectional_1/forward_lstm_1/while/add/y", "shape": [], "dtype": "int32"}, {"name": "StatefulPartitionedCall/sequential_1/bidirectional_1/forward_lstm_1/while/body/_24/sequential_1/bidirectional_1/forward_lstm_1/while/TensorArrayV2Read/TensorListGetItem/element_shape", "shape": [2], "dtype": "int32"}, {"name": "StatefulPartitionedCall/sequential_1/bidirectional_1/forward_lstm_1/while/body/_24/sequential_1/bidirectional_1/forward_lstm_1/while/lstm_cell_1/Cast/ReadVariableOp", "shape": [42, 512], "dtype": "float32"}, {"name": "StatefulPartitionedCall/sequential_1/bidirectional_1/forward_lstm_1/while/body/_24/sequential_1/bidirectional_1/forward_lstm_1/while/lstm_cell_1/Cast_1/ReadVariableOp", "shape": [128, 512], "dtype": "float32"}, {"name": "StatefulPartitionedCall/sequential_1/bidirectional_1/forward_lstm_1/while/body/_24/sequential_1/bidirectional_1/forward_lstm_1/while/lstm_cell_1/BiasAdd/ReadVariableOp", "shape": [512], "dtype": "float32"}, {"name": "StatefulPartitionedCall/sequential_1/bidirectional_1/backward_lstm_1/while/body/_68/sequential_1/bidirectional_1/backward_lstm_1/while/add_1/y", "shape": [], "dtype": "int32"}, {"name": "StatefulPartitionedCall/sequential_1/bidirectional_1/backward_lstm_1/while/body/_68/sequential_1/bidirectional_1/backward_lstm_1/while/lstm_cell_1/split/split_dim", "shape": [], "dtype": "int32"}, {"name": "StatefulPartitionedCall/sequential_1/bidirectional_1/backward_lstm_1/while/body/_68/sequential_1/bidirectional_1/backward_lstm_1/while/add/y", "shape": [], "dtype": "int32"}, {"name": "StatefulPartitionedCall/sequential_1/bidirectional_1/backward_lstm_1/while/body/_68/sequential_1/bidirectional_1/backward_lstm_1/while/TensorArrayV2Read/TensorListGetItem/element_shape", "shape": [2], "dtype": "int32"}, {"name": "StatefulPartitionedCall/sequential_1/bidirectional_1/backward_lstm_1/while/body/_68/sequential_1/bidirectional_1/backward_lstm_1/while/lstm_cell_1/Cast/ReadVariableOp", "shape": [42, 512], "dtype": "float32"}, {"name": "StatefulPartitionedCall/sequential_1/bidirectional_1/backward_lstm_1/while/body/_68/sequential_1/bidirectional_1/backward_lstm_1/while/lstm_cell_1/Cast_1/ReadVariableOp", "shape": [128, 512], "dtype": "float32"}, {"name": "StatefulPartitionedCall/sequential_1/bidirectional_1/backward_lstm_1/while/body/_68/sequential_1/bidirectional_1/backward_lstm_1/while/lstm_cell_1/BiasAdd/ReadVariableOp", "shape": [512], "dtype": "float32"}, {"name": "StatefulPartitionedCall/sequential_1/bidirectional_1_2/backward_lstm_1_1/while/cond/_155/sequential_1/bidirectional_1_2/backward_lstm_1_1/while/Less/y", "shape": [], "dtype": "int32"}, {"name": "StatefulPartitionedCall/sequential_1/bidirectional_1_2/forward_lstm_1_1/while/cond/_111/sequential_1/bidirectional_1_2/forward_lstm_1_1/while/Less/y", "shape": [], "dtype": "int32"}, {"name": "StatefulPartitionedCall/sequential_1/bidirectional_1_2/backward_lstm_1_1/while/body/_156/sequential_1/bidirectional_1_2/backward_lstm_1_1/while/TensorArrayV2Write/TensorListSetItem/index", "shape": [], "dtype": "int32"}, {"name": "StatefulPartitionedCall/sequential_1/bidirectional_1_2/backward_lstm_1_1/while/body/_156/sequential_1/bidirectional_1_2/backward_lstm_1_1/while/add_1/y", "shape": [], "dtype": "int32"}, {"name": "StatefulPartitionedCall/sequential_1/bidirectional_1_2/backward_lstm_1_1/while/body/_156/sequential_1/bidirectional_1_2/backward_lstm_1_1/while/lstm_cell_1/split/split_dim", "shape": [], "dtype": "int32"}, {"name": "StatefulPartitionedCall/sequential_1/bidirectional_1_2/backward_lstm_1_1/while/body/_156/sequential_1/bidirectional_1_2/backward_lstm_1_1/while/add/y", "shape": [], "dtype": "int32"}, {"name": "StatefulPartitionedCall/sequential_1/bidirectional_1_2/backward_lstm_1_1/while/body/_156/sequential_1/bidirectional_1_2/backward_lstm_1_1/while/TensorArrayV2Read/TensorListGetItem/element_shape", "shape": [2], "dtype": "int32"}, {"name": "StatefulPartitionedCall/sequential_1/bidirectional_1_2/backward_lstm_1_1/while/body/_156/sequential_1/bidirectional_1_2/backward_lstm_1_1/while/lstm_cell_1/Cast/ReadVariableOp", "shape": [256, 256], "dtype": "float32"}, {"name": "StatefulPartitionedCall/sequential_1/bidirectional_1_2/backward_lstm_1_1/while/body/_156/sequential_1/bidirectional_1_2/backward_lstm_1_1/while/lstm_cell_1/Cast_1/ReadVariableOp", "shape": [64, 256], "dtype": "float32"}, {"name": "StatefulPartitionedCall/sequential_1/bidirectional_1_2/backward_lstm_1_1/while/body/_156/sequential_1/bidirectional_1_2/backward_lstm_1_1/while/lstm_cell_1/BiasAdd/ReadVariableOp", "shape": [256], "dtype": "float32"}, {"name": "StatefulPartitionedCall/sequential_1/bidirectional_1_2/forward_lstm_1_1/while/body/_112/sequential_1/bidirectional_1_2/forward_lstm_1_1/while/TensorArrayV2Write/TensorListSetItem/index", "shape": [], "dtype": "int32"}, {"name": "StatefulPartitionedCall/sequential_1/bidirectional_1_2/forward_lstm_1_1/while/body/_112/sequential_1/bidirectional_1_2/forward_lstm_1_1/while/add_1/y", "shape": [], "dtype": "int32"}, {"name": "StatefulPartitionedCall/sequential_1/bidirectional_1_2/forward_lstm_1_1/while/body/_112/sequential_1/bidirectional_1_2/forward_lstm_1_1/while/lstm_cell_1/split/split_dim", "shape": [], "dtype": "int32"}, {"name": "StatefulPartitionedCall/sequential_1/bidirectional_1_2/forward_lstm_1_1/while/body/_112/sequential_1/bidirectional_1_2/forward_lstm_1_1/while/add/y", "shape": [], "dtype": "int32"}, {"name": "StatefulPartitionedCall/sequential_1/bidirectional_1_2/forward_lstm_1_1/while/body/_112/sequential_1/bidirectional_1_2/forward_lstm_1_1/while/TensorArrayV2Read/TensorListGetItem/element_shape", "shape": [2], "dtype": "int32"}, {"name": "StatefulPartitionedCall/sequential_1/bidirectional_1_2/forward_lstm_1_1/while/body/_112/sequential_1/bidirectional_1_2/forward_lstm_1_1/while/lstm_cell_1/Cast/ReadVariableOp", "shape": [256, 256], "dtype": "float32"}, {"name": "StatefulPartitionedCall/sequential_1/bidirectional_1_2/forward_lstm_1_1/while/body/_112/sequential_1/bidirectional_1_2/forward_lstm_1_1/while/lstm_cell_1/Cast_1/ReadVariableOp", "shape": [64, 256], "dtype": "float32"}, {"name": "StatefulPartitionedCall/sequential_1/bidirectional_1_2/forward_lstm_1_1/while/body/_112/sequential_1/bidirectional_1_2/forward_lstm_1_1/while/lstm_cell_1/BiasAdd/ReadVariableOp", "shape": [256], "dtype": "float32"}]}]}